src/cnn_emotion_classifier.pth (torch, 516468 bytes, 8 tensors)

net.0.weight f4 [64, 12, 5]
000000 70 53 c3 bd 28 0f b0 bb f3 c5 da 3d 8b dc db 3b
       -0.09537399 -0.0053729005 0.10682287 0.0067096404
000010 1a a7 02 bc a4 75 d7 bd 4a 37 9f bd f3 9f 07 bd
       -0.00797441 -0.10520485 -0.077742174 -0.033111524
000020 9f af 14 be 82 af 96 bd c5 35 fc bd 6a fd 87 3c
       -0.14520119 -0.07357694 -0.12314943 0.01660033
000030 36 59 ff bd 06 68 e9 bc 07 f3 1c be 72 26 79 bc
       -0.124681875 -0.028491985 -0.15327083 -0.01520692
000040 bc dc 06 be 17 85 c2 bd 86 30 4e 3d 71 33 0b be
       -0.13170141 -0.09498041 0.050339244 -0.13593842
000050 d3 63 16 bd 7d 93 b5 bc 1b 69 8b 3d 62 15 84 3d
       -0.036716294 -0.022165054 0.06807157 0.06449391
000060 dc fe 8c 3c 7b 79 de bd a3 38 b8 bd d8 ff 8f bd
       0.01721137 -0.10863014 -0.089951776 -0.0703122
000070 4e 5e f9 bd 36 a0 9e 3d 93 8a 91 bd 9a fb 78 3d
       -0.1217619 0.077454016 -0.07106509 0.06078682
000080 69 20 62 3c 2f 40 fa bc 5b e6 18 3e c4 4b 78 3d
       0.0138016725 -0.030548183 0.14931624 0.06061913
000090 2b e0 13 bd 5b 84 02 3e 9a f2 33 3d ee c5 0c 3e
       -0.036102455 0.12745802 0.043932535 0.13747379
0000a0 3e df 09 3d 70 ef 73 bc 66 41 9b 3d 17 ac d5 3c
       0.033660166 -0.014888629 0.07580833 0.026083035
0000b0 53 e1 ba bc 73 43 48 3d 78 f0 9b 3d b3 e0 9b 3d
       -0.022812521 0.04889245 0.07614225 0.07611217
0000c0 90 82 5f bc 15 1a d3 bc b5 ab 15 be ef 1a 42 3d
       -0.013641968 -0.025769273 -0.14616282 0.047388967
0000d0 6d eb 2f be 38 43 e5 bd 66 1b 1c bd 8e 7c 45 3d
       -0.17179652 -0.111944616 -0.038112067 0.048214488
0000e0 61 fe 54 3e 57 56 64 3e 5e 00 b2 3d e0 5f 51 3e
       0.20800163 0.22298561 0.08691476 0.2044673
0000f0 d3 f6 31 3e e0 bc 3d 3e 76 f9 83 bc 6e 5b 50 3e
       0.17379312 0.18529081 -0.016110163 0.20347378
000100 5d 08 03 3d 47 2b 1e be e2 b1 d2 bd 71 a2 1c be
       0.031990398 -0.15446196 -0.10287835 -0.15296341
000110 05 06 12 be 4d f7 dc bc 4e 99 95 bd 4e fd 51 ba
       -0.14260109 -0.026973391 -0.07304631 -0.00080104626
000120 ee 35 d7 bd f4 7b 8e bd 00 27 91 bc 87 89 b5 3c
       -0.10508333 -0.06957236 -0.017718792 0.022160305
000130 26 e0 f7 3d a7 0f 80 3d 59 8f eb 3d 27 12 01 3e
       0.121033 0.062529854 0.11501951 0.12604581
000140 cf d8 cc bb a1 6b 0e 3d e5 2d b7 3c 44 40 e2 3c
       -0.0062514315 0.03477061 0.022360751 0.027618535
000150 8a 3e d6 bc a5 88 b6 bc 4b 75 5c 3d 5d 29 a2 3d
       -0.026152868 -0.022281954 0.053822797 0.07918046
000160 98 1d 77 bd b1 8b f6 bc 06 5e ca 3c 23 b0 1d bd
       -0.060330957 -0.030095907 0.024703037 -0.038498055
000170 60 fd 3c bc e3 1f 06 3e 92 e2 af 3a 77 b9 fa bd
       -0.011535019 0.13098101 0.0013418964 -0.12242406
000180 bc 4e a7 bc bf 55 f4 bd 71 b1 f2 bd 12 66 47 3c
       -0.020423286 -0.11930417 -0.118502505 0.012170332
000190 7a 92 4f bb 9a 0f f8 3a 53 b5 a2 3c a6 71 6a 3d
       -0.0031673 0.0018925548 0.019861853 0.05723729
0001a0 7c 50 84 3d 5b 58 a4 3d c2 c3 f0 3d 1e 9a 13 3e
       0.06460664 0.08024665 0.11756088 0.1441426
0001b0 89 97 65 bd 0a ed 23 3e 6c 38 23 be 20 b5 1d be
       -0.05605272 0.16008392 -0.15939492 -0.15401125
0001c0 de 1b a5 bc c2 3e 34 be 8c 73 ee bd df 0d b0 bb
       -0.02015489 -0.17602065 -0.116431326 -0.0053727473
0001d0 1c 9f 56 3d 4f ce 59 3e 6a 33 2f 3e c3 9a b9 bc
       0.052397832 0.21270107 0.17109457 -0.022656804
0001e0 45 f2 93 3d 8d 6e 3d bd 56 46 24 3c 3b 10 48 3d
       0.072239436 -0.046248008 0.010026535 0.048843604
0001f0 91 55 84 bb 1f 54 05 be e9 ae 58 bc 25 b3 72 bc
       -0.0040385206 -0.13020371 -0.013225296 -0.014813219
000200 ea 3d df bd 5f 75 25 3d 63 77 4a 3d 2c f2 0f 3e
       -0.10900481 0.040395137 0.049430262 0.14057225
000210 0e 31 15 3d 4b 1a 77 3d 17 64 43 3d e9 a1 51 3d
       0.036423735 0.06032781 0.047702875 0.0511798
000220 10 a1 a6 3d 6b 6a 8a bc 04 f0 dd bd 1a 88 7a bd
       0.08136189 -0.016896447 -0.10836795 -0.061164953
000230 5e 92 64 bc c3 1c 7d bc 7b ad 15 bd f5 b8 6a 3d
       -0.013950912 -0.015448752 -0.036542397 0.057305295
000240 52 0d fb bd 91 84 e6 bb 87 d4 cf bc 00 18 21 be
       -0.122584 -0.007034846 -0.025369896 -0.15731812
000250 20 94 55 3e ab cf 1a 3e 01 5e 68 3d a6 c6 fb 3d
       0.20857286 0.15118282 0.056730274 0.122937486
000260 98 83 23 3d 0b 17 35 3e 48 1c 8c bd 81 cc 9d bd
       0.03992042 0.17684571 -0.06841332 -0.07705022
000270 49 b4 84 bd 88 c2 50 bd 4e 21 26 bc 8c 8c 8f bd
       -0.06479699 -0.05096677 -0.010139776 -0.07009229
000280 30 7a 07 3d b6 01 85 bd a3 e7 ba bd 8d c6 2f be
       0.03307551 -0.06494467 -0.091262124 -0.17165585
000290 94 83 ff bd 6f 0e e2 3c 4c 99 48 bb e1 cd 0c 3d
       -0.124762684 0.027594773 -0.003060895 0.03437603
0002a0 72 96 87 ba 2f de 02 bc b9 76 ed 3d 51 4d 1e bd
       -0.0010344519 -0.007987543 0.1159491 -0.038647953
0002b0 8b c7 21 3e 4c 41 a6 3d 90 75 c0 bc 84 16 34 3d
       0.15798776 0.08117923 -0.023493558 0.043966785
0002c0 fa 47 a5 3d bd 05 fe 3d 1d 9f 25 3e 6d ac 81 3d
       0.08070369 0.12403438 0.16173978 0.06331716
0002d0 70 c1 47 3d bd 9e 88 bd 52 1b bd bb e7 25 70 bd
       0.04876846 -0.06670902 -0.005771079 -0.058629896
0002e0 00 3c cc 3b d4 af a4 3d 06 ae a9 3c d6 2a 63 3d
       0.0062327385 0.08041349 0.020712864 0.055460773
0002f0 9f a9 5c bd a8 05 f2 3d 60 94 02 3e 8e 23 37 3e
       -0.0538727 0.11817485 0.12751913 0.17884657
000300 50 7a bb 3d 97 fd cf bd f6 e2 58 3d d9 46 87 bc
       0.09154189 -0.1015579 0.05295082 -0.016513275
000310 be 5d fc 3d 5a 97 8d 3b 2e 9f 2e bc 0a 5a c0 bd
       0.123225674 0.004321021 -0.010658069 -0.093921736
000320 3b 99 a6 3d ad 4d c9 3d 95 5f 95 bd 8b 0a 82 3d
       0.08134695 0.098292686 -0.072936215 0.06349667
000330 af 5f ce 3d 4e 14 ea bd 9b 71 cb bd 62 1d 09 3e
       0.10076844 -0.11429654 -0.09933778 0.13390115
000340 c9 58 de 3d 03 ab f9 bb dd 85 91 bd 10 82 a0 bc
       0.10856778 -0.007619263 -0.071056105 -0.019593269
000350 53 b8 8e bd 72 54 f5 bd 50 5d d9 bd b4 fc a9 bd
       -0.06968751 -0.11978997 -0.10613501 -0.083001524
000360 72 1b 85 3c ef d6 88 bd 8e 44 f4 bd 6a 6d a5 bd
       0.016248439 -0.0668162 -0.11927138 -0.0807751
000370 aa 5c b5 bc c1 65 be bd a8 6f ee 3c 92 7b 0b bd
       -0.022138912 -0.09296752 0.029105976 -0.034053393
000380 a8 57 d9 bd 56 5d 88 3d 79 bb d6 bd bb 92 a3 3d
       -0.10612422 0.066584274 -0.10484976 0.07986971
000390 d6 14 8a 3d 07 49 82 3d 82 87 61 bc bc e8 2f 3e
       0.067422554 0.06361585 -0.013765218 0.17178625
0003a0 00 e3 65 3d 54 de 6d 3d 41 cb 35 3e 68 c7 86 3d
       0.056124687 0.058073357 0.17753316 0.065810025
0003b0 84 03 15 3c a0 40 a9 3d 83 7a ff 3d 9c 60 d8 3d
       0.0090950765 0.08264279 0.12474539 0.10565302
0003c0 7d 08 35 bd 68 9a dd 3d ef 24 28 bd a4 bd ab bd
       -0.04419755 0.10820466 -0.041050848 -0.083857805
0003d0 00 ee ab bd 9a 23 8f bd 08 0e a5 bc e4 7c 41 3c
       -0.08395004 -0.06989212 -0.020148292 0.011809561
0003e0 1c c9 03 3e cc 6d 9b bd 8e 0a 3c 3d 00 4e ae bd
       0.12869686 -0.075893015 0.045908503 -0.08510971
0003f0 0b 84 1b be 04 02 ea 3d de 37 99 3d 27 e5 c2 3d
       -0.15187089 0.11426166 0.07481359 0.095163636

net.0.bias f4 [64]
000000 3c d5 8a bd 53 4f c9 3d 6c e0 95 3d 9f 26 f1 3d
       -0.067789525 0.09829583 0.07318196 0.117749445
000010 1c 7f 8b 3d be 7b 71 3a 14 d5 2f bd b8 40 81 bc
       0.068113536 0.00092118594 -0.042927817 -0.01577793
000020 3c c0 22 be 0e 6c 74 bd 37 68 83 3d fd ef 5d be
       -0.15893644 -0.05967336 0.06416362 -0.2167358
000030 c0 d7 ee 3c 5f 59 1c bd 7f c2 e7 3d 07 02 11 be
       0.029155612 -0.03817117 0.11316394 -0.1416093
000040 ed 31 75 bd 63 4a 05 bc 21 f2 4d bd 62 21 40 3c
       -0.059862066 -0.008135411 -0.05027974 0.011726709
000050 5a 4f 88 bd 70 e5 40 be 28 c7 8e 3c 25 66 39 bd
       -0.0665576 -0.18837523 0.01742895 -0.04526343
000060 63 8e 93 bd 13 30 ed bd e6 04 1b be 2a ad 7d bd
       -0.072048925 -0.11581435 -0.15138587 -0.06193272
000070 8d 40 7b 3c 84 6a 2c 3c d0 6d b6 bd 13 9b d5 ba
       0.015335214 0.010523442 -0.08907664 -0.0016296826
000080 a7 73 4c bc d6 8b 1b 3e b4 78 d4 3d 4f 92 c2 ba
       -0.012478746 0.15190062 0.10374585 -0.0014844629
000090 47 75 36 3c 15 08 28 bd af c8 50 bd 93 79 76 bd
       0.01113636 -0.041023333 -0.050972637 -0.060174536
0000a0 98 2b 49 3d 41 5e d5 3c 85 84 01 3e 9c 9c 61 3d
       0.04911384 0.02604592 0.12648208 0.055080995
0000b0 b3 92 4d 3d fb 82 c7 bc bd 63 ad 3d 85 cb 06 3d
       0.05018873 -0.024354449 0.08466289 0.032908935
0000c0 1d 89 94 bd ad e1 89 3d bf e7 1d 3e fd 21 19 be
       -0.07252715 0.06732497 0.15420435 -0.14954372
0000d0 e5 94 a4 bd f0 28 07 be b1 87 d3 3c 4b 87 14 bc
       -0.08036212 -0.1319921 0.025821539 -0.0090654595
0000e0 a6 d9 04 be 9f b7 0a bc 50 29 3a 3d 91 a5 8b bd
       -0.12973651 -0.00846663 0.045449555 -0.06818689
0000f0 a7 d3 0f be 80 65 36 3d 66 77 55 bd 71 b1 87 3d
       -0.14045583 0.04453039 -0.05211582 0.06625641

net.3.weight f4 [128, 64, 3]
000000 69 6e 35 3d 11 22 f6 3a 77 9f ba 3b 57 e8 9d bd
       0.04429475 0.0018778463 0.005695279 -0.07710331
000010 27 1d f4 bd 93 41 d0 bd fd 40 08 be bf 02 9f bd
       -0.11919623 -0.10168757 -0.13306041 -0.07764196
000020 72 72 ae bd 39 b6 0d be 8c a1 ff bd 75 5b 0b be
       -0.085179225 -0.13839044 -0.124819845 -0.13609107
000030 e2 a2 fb 3b 52 0f ab 3c 51 16 ba 3d 4e c9 a3 bd
       0.0076793293 0.020881329 0.09086288 -0.0799738
000040 74 0b a8 3c 2c c9 8c 3c 87 ef 27 bd e4 bb 2b bd
       0.020513274 0.01718577 -0.040999915 -0.041927233
000050 5e e7 54 bd 69 c0 ef bc 18 db a9 3c aa 02 86 3c
       -0.05197846 -0.029266553 0.020734355 0.016358692
000060 0f 1f 8e 3c e7 12 4c bd ee 22 5c bd 02 a9 99 bd
       0.017348794 -0.049822714 -0.05374425 -0.07502939
000070 93 15 c2 bc 20 5b 3c bd e9 05 17 3d 55 36 58 3d
       -0.023691928 -0.04598534 0.03687087 0.05278619
000080 97 a9 11 3a c9 2d 55 bd 6c f0 90 bd 46 28 18 bd
       0.0005556582 -0.052045617 -0.07077107 -0.037147783
000090 55 73 42 bc de c2 d7 bb c6 77 c2 bc bd 3d b5 3d
       -0.011868318 -0.0065845093 -0.023738753 0.08849666
0000a0 25 ea b1 3d 81 c8 f4 3b c2 1b aa bd d9 e8 bc bc
       0.08687238 0.007470191 -0.08306076 -0.02306025
0000b0 1f 7a f2 bc aa a9 f9 bd cb 86 a4 bd 89 f9 f5 bd
       -0.029599248 -0.12190564 -0.08033522 -0.12010486
0000c0 3f ad 54 3b c4 6d 6b 3d 9c a6 d8 3b 17 69 f6 3c
       0.0032451896 0.057477728 0.0066116583 0.030079408
0000d0 72 94 ae 3d 2b c0 13 3c 20 50 d0 bd e6 62 8d bd
       0.085244074 0.009017984 -0.10171533 -0.06903629
0000e0 63 b1 b2 bd 32 79 27 bd 51 c2 1a 3c d8 16 57 bd
       -0.0872524 -0.040887065 0.009445743 -0.05251202
0000f0 1c 1b 94 bd 4f 3c 2a bd da bc 0a bc ab 2e 7e bc
       -0.07231733 -0.04156142 -0.008467877 -0.015514056
000100 3c 53 68 3c 75 2a 85 3d 8b a0 3a bc d1 b9 4f bc
       0.014180001 0.06502239 -0.0113908155 -0.012678579
000110 3c e8 00 bd ba 52 f8 3c 10 54 c7 3d 5d d3 fb 3c
       -0.031471476 0.030312885 0.097328305 0.030740434
000120 f3 c4 9b 3b a9 81 38 bc 74 de 6b 3c 94 82 15 bc
       0.004753703 -0.011261382 0.014396299 -0.0091253705
000130 54 b9 c5 bb ff 02 8c ba 19 d0 6b bc 81 a0 fa bc
       -0.0060340557 -0.0010682045 -0.014392876 -0.030594112
000140 7d 19 7a bd 01 4f 1a bd 63 b0 ad bd 5f 8b 08 bd
       -0.061059464 -0.037673 -0.08480909 -0.03333604
000150 57 73 1a bd 83 d9 10 bd fb 03 85 bd 03 03 84 bd
       -0.037707653 -0.035363685 -0.064949 -0.06445887
000160 9b 0e bb bd 70 b9 29 bc b1 db ca 3c cd 17 05 bd
       -0.09133645 -0.010359153 0.02476296 -0.0324934
000170 67 44 48 bd 8c 9e ea bc 07 c2 49 bd b8 2d e0 bc
       -0.04889336 -0.028640054 -0.049257305 -0.02736555
000180 34 05 cb 3c 2b d1 dc 3c 8f 08 2c 3d db 26 97 3d
       0.024782754 0.026955208 0.04200035 0.07380458
000190 05 b6 79 bc 50 e1 89 3d f2 a0 2d 3d b5 46 61 3d
       -0.015241151 0.06732428 0.042389818 0.054999072
0001a0 0a 2c 71 3d 5e 16 66 bd b2 17 46 bc 1c 57 0a bd
       0.05887989 -0.056173675 -0.01209061 -0.03377448
0001b0 27 f2 e6 3c 91 f2 4b bc f7 de c8 bc 5b fd 3f bb
       0.02819164 -0.012447969 -0.02452038 -0.0029295299
0001c0 ff 48 0d 3d 13 d3 6a bd 4f 9a ab 3d a4 0d b9 3d
       0.034493443 -0.057330202 0.083790414 0.09035805
0001d0 e3 eb 8f 3d d6 9b a6 bc 42 2c 92 bd 6a b0 5c bd
       0.07027414 -0.02033798 -0.07137348 -0.05387918
0001e0 5e a8 84 bb bf 2d 13 3d 55 cf 37 bc cd 85 d3 bc
       -0.0040483912 0.0359323 -0.011218865 -0.025820637
0001f0 68 5e fe bc 6e 19 94 bd 5e a4 cc bc e3 ae 31 3d
       -0.031050876 -0.07231413 -0.02498072 0.043379676
000200 90 68 62 3d 82 97 5d bc 7b ab 74 bb 2a 08 fb ba
       0.0552755 -0.013524892 -0.0037333656 -0.0019152213
000210 af ff 1f bd 81 7d f4 bb af 5c 79 3d cc 4b 2a bd
       -0.0390622 -0.0074612503 0.060879406 -0.04157619
000220 1a fe 27 3d da 43 93 bd 61 ba da 3c c0 1c 98 3c
       0.041013815 -0.07190676 0.0267002 0.018568397
000230 b9 74 92 3b 17 4e 9f 3a 97 63 8e bc b7 9e 35 bd
       0.004469481 0.001215401 -0.017381473 -0.044340815
000240 89 f2 c7 bc 14 03 9c bd 4c db 17 bd d4 77 94 bb
       -0.024407642 -0.076177746 -0.037074372 -0.004530886
000250 59 65 7c bc 3f 57 45 3d 94 31 2d bd d0 cc a7 3c
       -0.015405023 0.048178907 -0.04228361 0.020483404
000260 96 63 8e bd 3a 28 53 bd 6c 78 71 bb 15 f6 8d 3b
       -0.06952588 -0.051552035 -0.0036845459 0.004332314
000270 3d 65 a1 bc e1 73 98 bd ab 64 88 bd 8e a5 59 3d
       -0.019701594 -0.07443977 -0.06659826 0.0531364
000280 1e c5 12 3c e1 a8 a9 3d 0d 9e 18 bd a2 f9 52 bd
       0.008958129 0.08284164 -0.037260104 -0.0515076
000290 11 47 17 bc 62 c0 dd bc 92 4d 0e bc 1a 09 f1 bc
       -0.009233252 -0.027069274 -0.008685486 -0.029423285
0002a0 9c 68 3a bd 7a bd 19 bd 65 cc 91 bc cd 2e 3d 3d
       -0.04550992 -0.037534215 -0.017797658 0.04618721
0002b0 fc 4c c6 3d 59 a8 1a 3d 10 9c 37 bc fa 5e e2 3b
       0.09682652 0.037758205 -0.011206642 0.0069082947
0002c0 c6 a0 a6 bc d3 4e fb 3b dd 67 72 3c 8c 92 30 3d
       -0.020340335 0.0076693087 0.014795271 0.043108508
0002d0 c9 60 6c 3d d6 02 d6 bc 31 34 65 bc 39 c2 48 bd
       0.05770949 -0.0261244 -0.013989494 -0.04901335
0002e0 00 ac 8f bc 29 11 33 bd a5 0a c0 3c 60 32 dc bc
       -0.01753807 -0.043717537 0.023442576 -0.02687949
0002f0 89 cd b2 bd f4 f0 ab 3b 1a ff 22 3d 71 5e 0d bd
       -0.08730609 0.0052472297 0.039794065 -0.034513894
000300 38 bf 70 bd 1a ba e8 bb a0 c7 98 bc 73 34 39 bd
       -0.05877611 -0.007102263 -0.018649876 -0.045216035
000310 6f fe 39 bd a7 22 34 3d 67 3e dc bd 95 27 72 bd
       -0.045408662 0.04397836 -0.1075409 -0.05911978
000320 59 0e a9 bd 0f 48 a8 3c c4 e6 07 bd 82 02 ac 3c
       -0.0825469 0.020542173 -0.03317906 0.02099729
000330 79 9a ba bd 03 6a b7 bd 63 0c 56 bd 4f 79 2c bd
       -0.091114946 -0.08955767 -0.052257907 -0.042107876
000340 b7 6f ea 3c d1 0b 0b bd 89 a5 18 3d 68 68 c0 bb
       0.028617723 -0.033946816 0.03726724 -0.005871821
000350 9a 96 23 3d b7 bf aa 3d a6 b6 c8 3d b7 9d a9 3d
       0.039938547 0.08337348 0.098004624 0.08282035
000360 2d a6 40 3d b5 d4 50 3d bd 8d 4f bb 64 fb 8d 3c
       0.047033478 0.050984103 -0.0031670176 0.017331786
000370 ca a0 88 bd 50 6e f8 bc ec 90 43 bd 62 38 db bc
       -0.06671293 -0.030326039 -0.04774563 -0.026760284
000380 46 3c f8 bb f3 b0 1c 3e e9 f0 0c 3e 7f 70 f1 3d
       -0.0075755445 0.15301876 0.13763775 0.11789035
000390 ec 13 0f bd 18 47 ba bd 08 86 d2 bc fa 91 ac bd
       -0.03493111 -0.09095591 -0.025698677 -0.0842628
0003a0 c0 2c 35 bd a7 f8 e9 bd 84 7e a3 bd 54 c0 ab bc
       -0.04423213 -0.1142438 -0.07983115 -0.020965733
0003b0 af 53 b1 bd d6 af 0c 3c 26 7c 87 3d 7e e7 9c 3d
       -0.086585395 0.008586844 0.06615476 0.07661341
0003c0 ab 72 0c 3b c9 56 5c 3d f6 d8 39 3d 11 f4 37 3d
       0.0021430652 0.053793702 0.045372926 0.044910494
0003d0 f8 78 82 3b fd 36 b1 3c 55 c2 cc bb da 78 39 3d
       0.0039817058 0.021632666 -0.006248752 0.04528127
0003e0 37 63 ae bc b6 eb b5 bd 3f 72 75 bd bb a2 ad bd
       -0.021287544 -0.08882849 -0.059923407 -0.08478304
0003f0 1d ef c8 ba c9 5f 88 bc 29 1a bd bd 86 b7 c0 bc
       -0.001533005 -0.016647236 -0.09233505 -0.02352501

net.3.bias f4 [128]
000000 c3 96 31 3d 79 a5 d4 bd 76 6a 90 bc e8 11 8c bb
       0.04335667 -0.10383124 -0.01762889 -0.0042745955
000010 ad 44 ab 3d a3 1e 4d 3c 4c 10 d1 3a 0d b4 c6 3b
       0.08362708 0.012519511 0.0015950291 0.006063944
000020 c5 5e e2 39 c1 92 92 3d 30 58 30 3b 6c 10 97 bd
       0.00043176688 0.07156897 0.0026908033 -0.07376179
000030 4f fa 02 3e 75 dd dc 3c 5b 24 91 3d 70 01 aa bd
       0.12790798 0.026961068 0.070870124 -0.083010554
000040 e8 ee c6 bd 42 cf 00 3a cc 47 99 bd b0 bc 45 bd
       -0.097135365 0.00049136963 -0.07484397 -0.04827565
000050 5b 3b ff 3d ba 7b 34 3c f0 c3 69 bc 99 b5 85 bb
       0.12462493 0.011015827 -0.014267907 -0.004080486
000060 93 c1 18 3d 23 83 de 3b 17 ef e1 3d 8c bc 96 3c
       0.03729398 0.006790535 0.11031931 0.018400453
000070 69 7b c9 bd a1 4f b7 3d e1 76 2a bd 43 af 56 bb
       -0.09837992 0.08950735 -0.041617278 -0.0032758273
000080 c0 93 36 3d 19 47 9c 3c 2a 41 dc 3c e2 56 e2 bd
       0.0445745 0.01907687 0.026886541 -0.11051728
000090 0f 55 98 3d 47 30 b2 bb 66 e2 30 bc 62 11 9e 3c
       0.07438099 -0.005437884 -0.010796165 0.019295398
0000a0 b7 56 18 bd 43 4e 07 3d 4a c5 f2 bc 4e 1b 76 bd
       -0.037192073 0.03303362 -0.02963509 -0.060084634
0000b0 81 ca 1f bb e8 4d a7 bd 3a e6 19 bc b5 04 c5 3d
       -0.0024382176 -0.08169156 -0.009393269 0.096200384
0000c0 ab 1e a2 3d 4b 85 0b bd 9f 81 77 bd 9b 82 7d 3d
       0.07916006 -0.034062665 -0.06042635 0.061892133
0000d0 3e 36 a1 bc 3c 36 bc 3d c3 76 8a 3b 43 f6 02 bc
       -0.019679185 0.09190032 0.0042255833 -0.007993284
0000e0 c1 15 61 bc 87 35 66 3d 9a ad a7 3d 2c 6b 36 3d
       -0.013738097 0.05620339 0.08187409 0.0445358
0000f0 46 c9 c2 bd bf db 94 bd af 95 c8 3d e4 bd 5a 3d
       -0.09511046 -0.07268476 0.09794175 0.05340375
000100 2c 4a ed bb 78 bb b3 bd e1 6a 23 bd ff e7 a2 bd
       -0.007241508 -0.08775991 -0.03989685 -0.07954406
000110 21 31 6d bb d3 6e 80 bb 56 9a fd 3c 4f ad b3 3c
       -0.0036192613 -0.0039194613 0.030957382 0.021933226
000120 a5 ee ed 3d 2b f9 fd bd 47 fa d2 3b 63 18 e1 3c
       0.116177835 -0.12401041 0.006438527 0.027477449
000130 b7 47 5a bd 94 75 29 bd d0 e1 8d bb 57 0e 28 3d
       -0.05329105 -0.041371897 -0.0043298975 0.0410293
000140 b9 e9 2f 3c 23 8f 60 bc d2 d3 eb bd 47 dd 15 3c
       0.010736876 -0.013706001 -0.11515011 0.009146995
000150 63 41 3b 3d cb 3f 0f bc b2 a3 a2 3d cf d5 8c 3b
       0.045716655 -0.008743237 0.07941379 0.004297949
000160 e0 60 78 3d 2b 3e a5 3b 07 73 76 3c 27 cd a2 3d
       0.060639262 0.0050428114 0.015042073 0.07949286
000170 ec 5f 59 3c be 25 eb 3d b0 80 52 3d 67 c2 91 3d
       0.013267498 0.11481808 0.051392257 0.071171574
000180 be cd d0 bd c5 cc a4 3d e7 a7 eb bd 7e 98 ab 3c
       -0.10195492 0.08046869 -0.11506634 0.020946737
000190 ed 49 5d bd 7d a6 f9 bc 39 ca 1b bd 82 69 ac 3d
       -0.05402558 -0.030474896 -0.03803465 0.084185615
0001a0 35 89 7c 3d f6 70 f1 bb 21 06 9c bc 1a be 2d 3b
       0.06165429 -0.0073682023 -0.019045891 0.0026511014
0001b0 e8 fe 9a 3d 71 dd 49 ba 19 74 eb bb d4 77 a5 bd
       0.07568151 -0.0007700539 -0.007185471 -0.08079496
0001c0 4f f8 69 bd 86 9f 68 3d 4c bd da bc 48 33 ac bd
       -0.05712157 0.05679276 -0.026701592 -0.084082186
0001d0 bf d4 72 3d 47 f1 00 3c 84 ee 74 bc f2 fb 14 bd
       0.05928492 0.007870025 -0.014949445 -0.036373086
0001e0 66 4e c8 3d a2 27 81 3d 3c 23 bc 3c d0 8a 96 bc
       0.09780578 0.063063875 0.02296602 -0.018376738
0001f0 cd 38 d6 3d 95 8d a8 bb cf 42 dc bd fc 33 95 bd
       0.10460053 -0.005143831 -0.1075493 -0.07285306

net.6.weight f4 [256, 128, 3]
000000 eb 23 69 3b 31 b4 b1 3c 36 0a 1d 3d d6 f0 89 bc
       0.0035574387 0.021692367 0.038339816 -0.016838472
000010 17 86 34 bc cd 5b a8 bc 20 fa 33 bd 59 bf a9 bc
       -0.011018298 -0.020551587 -0.04393971 -0.020721124
000020 fa 27 25 bd 32 f2 13 3c 65 cd 32 bc 5d 61 c6 39
       -0.040321328 0.009029912 -0.010913228 0.00037838044
000030 68 6d 87 3c 22 04 88 3c b8 02 f4 3c 36 a5 e6 3c
       0.016531661 0.016603533 0.029786453 0.02815495
000040 5c ce 1e 3d 60 08 cb 3c 3b 30 32 bd 31 1b 04 bc
       0.03877102 0.024784267 -0.043503027 -0.008063124
000050 72 a4 0d bd 1b ce 37 bc 1c 3e 12 bd f8 0c d2 bc
       -0.034580655 -0.011218573 -0.035703763 -0.02564095
000060 0e 32 34 bc 91 84 38 bc 42 19 9e bc 3b bb 21 bd
       -0.010998262 -0.011262075 -0.019299153 -0.039485198
000070 e3 00 19 bd 81 a6 61 bd a4 c3 23 3d 49 24 74 3c
       -0.03735436 -0.05509043 0.0399815 0.014901229
000080 d7 d1 1c 3d 84 07 8a ba 23 34 19 3c a2 99 8c bc
       0.038286056 -0.0010530804 0.009350809 -0.017163102
000090 2c d9 12 3d cf 70 38 3d c5 bf 5d 3d e8 3c 88 3c
       0.035851642 0.045029458 0.054137964 0.016630605
0000a0 08 44 38 3c e4 fb 0c 3c ff 1d 31 3c 1f 49 85 3b
       0.011246689 0.008604977 0.010810374 0.0040675546
0000b0 d9 c9 d6 3b 6d ff 8f 3c 93 35 0f 3b af 94 f6 b9
       0.006554824 0.017577851 0.0021852 -0.00047031554
0000c0 01 87 d4 bb be 02 1b bc 78 cc ab bc 72 51 3d bc
       -0.0064858203 -0.009461103 -0.020971522 -0.011555063
0000d0 e7 bc ac bc 6c 24 98 bc a1 d9 d5 bc 27 e5 79 ba
       -0.02108617 -0.018572055 -0.02610475 -0.00095327426
0000e0 ce ea 29 3c 30 fb 3f bc 75 1d 2c 3d 17 bb 2d 3c
       0.010370923 -0.011717603 0.04202028 0.010603688
0000f0 5c 59 32 3b 10 f8 c8 3b b4 2b 32 3c 93 54 ab 3c
       0.0027213907 0.006133087 0.010874677 0.020914352
000100 8e 4b 77 3c 04 00 36 3c e4 2c c4 bc 33 5f 0d bd
       0.015093697 0.011108402 -0.023947187 -0.034514617
000110 b5 47 fb bc c7 d5 c8 3c a1 19 ae 3c 62 16 c3 3c
       -0.030673841 0.024516 0.021252455 0.023814384
000120 3c e3 c2 3c 38 69 0c bc ea 23 93 bc 26 b9 90 bc
       0.023789994 -0.008570008 -0.017961461 -0.01766641
000130 e2 d9 18 3c 8c 5b 41 bc c7 46 43 bc ac 5a a8 bc
       0.009329291 -0.011801612 -0.01191873 -0.020551048
000140 04 cb 22 3c 0c da 85 3c a9 05 e3 3b a7 46 41 3c
       0.009936098 0.016339324 0.006928165 0.01179663
000150 50 ca 2c bc c9 4b 81 bc f8 df df 3b 09 03 85 3d
       -0.010546282 -0.015783207 0.006832119 0.064947195
000160 ac b1 75 3d ec 15 2c 3c 82 d4 c5 bc 5a 60 e9 bc
       0.059983894 0.010503273 -0.024149183 -0.028488327
000170 e9 76 c7 3c 87 9e 61 3d aa c1 60 3d 02 44 17 3d
       0.024348693 0.055082824 0.054872192 0.03693009
000180 3f 21 0d 3b 04 25 c2 3c 65 1d 58 3c f1 f5 1a bc
       0.0021534709 0.023699291 0.013190602 -0.009458051
000190 b8 7f 95 3a a9 94 1b 3c 2e 4a 36 bd b3 57 9e bc
       0.0011405861 0.009495893 -0.044504337 -0.019328928
0001a0 41 56 75 bd e7 64 40 bc 09 57 d3 bc 6d a0 0e bd
       -0.05989671 -0.011742807 -0.025798338 -0.034820963
0001b0 0f d8 76 3c 29 e5 d4 bc 6c 46 01 ba 52 f9 d4 bb
       0.015066161 -0.025988178 -0.0004931453 -0.006499448
0001c0 22 7c e9 3c 30 2a f3 3c e6 d0 a8 3c 95 03 04 bc
       0.028501574 0.029683203 0.020607423 -0.008057495
0001d0 cb 20 13 3a 83 53 db bc 0d cd 46 bc 12 c3 39 bd
       0.00056124915 -0.02677322 -0.012133849 -0.04535205
0001e0 29 98 8c 3d 62 0a 92 3d fb 5e 94 3d 6c 98 d5 bc
       0.0686496 0.071308866 0.072446786 -0.026073657
0001f0 22 2c 08 bc 3d 1c 93 3a f1 81 be 3c 1f 7c c0 3c
       -0.008311303 0.0011223626 0.02325532 0.023496686
000200 26 b2 f3 3c d7 5c be bb 17 65 88 bc 6b e1 af b9
       0.029748034 -0.005809407 -0.016649766 -0.0003354655
000210 3d 3d 2f 3c 34 28 9e 3c f2 bf a4 3c af 7b f9 3c
       0.010695753 0.01930628 0.020111058 0.030454485
000220 ed 0b 02 3d a8 00 b0 3c 49 42 25 3b b5 ca 59 bb
       0.031749655 0.021484688 0.002521651 -0.0033232395
000230 48 c6 18 bc 6a 28 9e 3b 23 5e 25 3c 78 8e 17 3c
       -0.009324618 0.004826595 0.010093245 0.009250276
000240 37 3c 5b bb 12 0b b7 bc 8c 2c 89 bb 7e 07 d7 3a
       -0.003345264 -0.022344146 -0.0041862186 0.0016405431
000250 c9 2e a7 bc 51 0e b5 bc ff 22 e6 3b fe ab 16 3c
       -0.020408051 -0.022101553 0.007023215 0.00919628
000260 8f 83 ad bb e9 8e 27 3b e4 45 7f bc ac 93 7f 3a
       -0.005295224 0.0025567359 -0.015580628 0.0009749483
000270 92 9a 31 bd 6d 1c 60 bc 72 2a e6 bc 52 2e 3b 3c
       -0.0433603 -0.013678652 -0.028096411 0.011424618
000280 2e 7d 6c bc 11 78 39 bc 8f 4d 26 bb d8 b8 aa bb
       -0.014434142 -0.01132013 -0.0025375818 -0.0052100234
000290 98 bc b4 bb d4 69 3d 3d e6 b0 c2 3c 4b 2e 1d 3d
       -0.005515646 0.046243504 0.023765992 0.038374227
0002a0 12 4c 2a bd e3 ad ae bc a4 cb bc bc cc e8 c3 3c
       -0.041576453 -0.02132315 -0.023046322 0.023914717
0002b0 e6 99 04 3d d1 46 1b 3c ea e0 10 bc d0 d6 a7 bc
       0.03237333 0.009477333 -0.008842686 -0.020488173
0002c0 26 45 4f bc 39 47 2e 3d 6f 1b 59 3d ad a8 36 3c
       -0.012650764 0.042548392 0.05300468 0.011148614
0002d0 c5 b3 d7 bc 4f 0d 14 bd cf 7a 6f bc bd 2b f3 bb
       -0.026330838 -0.036145505 -0.014616682 -0.0074209855
0002e0 1f f0 4a b9 a2 27 f0 bb 81 c2 13 3d e3 36 da 3c
       -0.00019353673 -0.0073289433 0.036074165 0.0266375
0002f0 9f fb 0f 3d b8 19 ea ba 0c 8d 59 3c 58 2d 2d 3c
       0.035152074 -0.0017860448 0.013278257 0.010569893
000300 4b 20 33 3b 57 2e 96 3c 7d 14 62 3c 96 2e 62 bb
       0.002733248 0.018332643 0.01379883 -0.003451263
000310 53 1b fd 3b e3 c5 ae bc 0a fe e1 bb 48 0e 87 3c
       0.0077242046 -0.021334594 -0.006896739 0.016486302
000320 92 31 1a 3d 62 57 c6 bc 3d 9f 42 bd 95 a5 5d bc
       0.03764493 -0.02421159 -0.047515143 -0.013528247
000330 07 68 64 bb 6f ee 55 3c a3 ab af bc 41 1c 23 3c
       -0.0034852044 0.013057335 -0.021444147 0.009955467
000340 ee 9f af 3c 78 a3 bb 3c 81 8e 3f 3d 08 e3 d0 3c
       0.021438565 0.022905096 0.04676676 0.025498882
000350 e4 fb 3e 3d 59 f7 20 3d b7 40 82 3c dd 86 8d 3d
       0.04662694 0.03929839 0.015899999 0.06910489
000360 f0 b0 26 bd a2 e6 11 bd 33 af e6 bc 53 31 2c bd
       -0.040696084 -0.03562034 -0.028159713 -0.042039227
000370 86 be 20 bd b1 6f c5 bb 35 bd 01 3d 7c 1c 61 3d
       -0.039244197 -0.0060252775 0.031674583 0.054958805
000380 99 1b 91 3c e4 49 d7 bc f8 8a 3c bd f6 22 d1 bc
       0.017713355 -0.026280351 -0.04603097 -0.025529366
000390 1d 99 01 3d 9a a9 09 bc 8d 1e 03 3c 11 6e 3a 3c
       0.03164016 -0.008402253 0.008002889 0.011378781
0003a0 ce 5e 57 3c af 6b 17 3d 93 e7 5d bc 56 f3 b1 3c
       0.013145162 0.03696793 -0.013543981 0.021722477
0003b0 2b 43 ae 3c a4 a7 be 3c 97 dd 10 3d b7 74 9f 3c
       0.021272263 0.023273297 0.035367575 0.019464834
0003c0 45 f3 b5 3c 63 42 f2 3c 74 ce 94 3c 41 c8 02 bd
       0.022210727 0.029572671 0.01816485 -0.03192926
0003d0 a6 31 3b b9 4f ba a8 bc 99 14 16 bd cd 2b d2 bc
       -0.00017852205 -0.020596651 -0.036640737 -0.025655651
0003e0 01 2d a1 bc 2f b4 54 bc 41 ea 1b bd ce 85 c2 ba
       -0.01967478 -0.012982412 -0.0380652 -0.0014840902
0003f0 7d 7d 1e 3d fd bf 43 3d 6e a6 2f 3d ed b2 20 bd
       0.038693894 0.047790516 0.04288333 -0.039233137

net.6.bias f4 [256]
000000 61 1d f6 3c 57 c2 ae b2 9f d3 a2 3b 60 16 46 bd
       0.030043306 -2.0344642e-08 0.004969075 -0.048361182
000010 b5 73 b0 bc 5e 0e 8b b0 5b 82 b2 3c 1d 89 76 3d
       -0.021539548 -1.0117664e-09 0.021790674 0.060189355
000020 a0 50 d2 bc a8 37 47 bc dc 6a 7c bb ea 3c 84 3c
       -0.02567321 -0.012159266 -0.0038515842 0.016142327
000030 b2 d4 e7 a2 cf 51 51 bd 6f ad 68 3d c6 5e 76 bb
       -6.2837875e-18 -0.05110341 0.056806024 -0.003759311
000040 a6 63 06 3c 17 a9 2e bd 41 6e 96 bc 1b 7b b1 3d
       0.008202469 -0.042641725 -0.01836312 0.08666059
000050 60 1d ce ba 35 b1 66 3d 79 8a 17 3c a8 f0 66 3a
       -0.0015725307 0.05632134 0.009249323 0.0008809664
000060 f1 3b a1 3b 65 44 2a 3d 7e ae 65 3d 65 4c 42 bb
       0.0049204757 0.041569132 0.05607461 -0.0029647585
000070 fc 46 39 bd 17 92 e0 bc 76 81 b4 bc 58 1e a7 3d
       -0.04523371 -0.027413411 -0.022034388 0.081600845
000080 f7 26 55 3d 54 a2 9e 3b 56 39 91 3c 6b 9a 6b 3d
       0.052039113 0.0048411284 0.017727535 0.05752031
000090 16 c5 57 b9 49 ff 73 38 6a e0 47 3d 56 f0 ee 3c
       -0.00020577418 5.8173468e-05 0.048798002 0.029167335
0000a0 1c 0d 00 bb f3 ca de 3c 2c 18 23 3d 87 0b c0 3b
       -0.0019539064 0.027196383 0.039817974 0.005860749
0000b0 41 d1 4b bc 42 48 2d bb 74 3f 1b 3d 50 7f 55 bc
       -0.012440027 -0.0026440774 0.03790231 -0.013030842
0000c0 f0 81 d1 3c 19 50 b0 3a ee b4 9d 3c cf b9 bd 3c
       0.025574654 0.0013451605 0.019251313 0.02315989
0000d0 19 22 64 9b 2d 1e cc bc 32 b0 5d bc 20 a6 26 3d
       -1.8870736e-22 -0.024916733 -0.013530778 0.040685773
0000e0 de 29 09 3c dd 6f a3 3d 71 84 0f bd 3c 72 3f bd
       0.008371798 0.079803206 -0.035038415 -0.0467398
0000f0 f0 65 da 3b 34 1d be 3c 28 59 82 bd 7d ff 24 bd
       0.006664984 0.023207285 -0.063646615 -0.040282715
000100 ee 17 40 bc 71 18 05 bb 00 29 4b 3b 47 39 d2 3c
       -0.011724455 -0.0020308758 0.003099978 0.025662078
000110 36 8a bd bc a5 46 21 bd d5 af dc bb ee 1f b9 3d
       -0.023137193 -0.039374013 -0.006734828 0.09039293
000120 91 36 47 3d 77 4b ff 3c e5 4c 53 bc 0c 33 ed 3a
       0.048636023 0.031163914 -0.012896751 0.0018096878
000130 15 ea 64 3c 48 77 8e 3b cd a3 a5 3c 30 09 29 3d
       0.013971825 0.0043477155 0.020219708 0.041268528
000140 c6 90 77 3d 7c e3 09 bd dd 50 a4 bb 77 b6 35 bc
       0.0604408 -0.03366421 -0.0050145225 -0.011090866
000150 26 10 b4 3b d9 f8 1c bd 1b 18 59 bd 2f 3a c2 3c
       0.005495089 -0.038323257 -0.053001504 0.023709385
000160 34 54 a8 bb ed ed 8c 3c 52 24 b3 3c 3a e9 29 3d
       -0.005136991 0.017203296 0.021867905 0.041482188
000170 c6 99 a6 3b 24 bd 1e 3c 9f 2f 57 bc a1 83 00 3d
       0.005084249 0.009688649 -0.013133912 0.03137553
000180 a8 2b 85 3d 5b 45 a7 ba fd d0 9a bd cf d7 11 3b
       0.065024674 -0.0012761758 -0.075593926 0.0022253876
000190 69 89 24 bd f7 0c 4f bc 28 ad 28 3c c4 86 9b 3d
       -0.040170107 -0.012637368 0.01029519 0.07594064
0001a0 db 98 96 3b 42 90 c8 ba 57 2d c9 bc 26 de 15 bd
       0.0045958585 -0.0015301781 -0.024557753 -0.03658881
0001b0 4f b2 48 3c 22 f2 3a bd 2e 96 02 bc 7d 10 5f 3d
       0.012249543 -0.045641072 -0.007970376 0.054459084
0001c0 bb 1a ec bb 79 ad 12 3d 12 68 3f 3c 3a 07 bf bb
       -0.007205335 0.035809968 0.011682527 -0.005829719
0001d0 5b be d4 3c 3c 7e 65 3d f1 69 a2 3d a0 08 17 3c
       0.025969675 0.05602859 0.07930363 0.009218365
0001e0 06 cb 7d 3c b6 5f 0a 3d 04 52 38 bc b6 59 72 3d
       0.015490299 0.033782683 -0.011250023 0.059167586
0001f0 11 f1 1e 3d 04 84 13 3d 9b 29 55 bd 0b 57 7c bc
       0.038804118 0.03601457 -0.05204163 -0.015401612
000200 eb e0 88 b5 c9 22 2a 3d 87 67 cf bc fd bc fc 3c
       -1.0198249e-06 0.04153708 -0.02531792 0.030851835
000210 61 bc f5 a9 83 ca 64 3c 07 aa 2b 3d 2e c2 46 3d
       -1.0912864e-13 0.013964298 0.041910198 0.048525028
000220 bf 12 1e 3d fb a7 83 bb 6d 7f 34 bc af ee d4 3c
       0.038592096 -0.0040178276 -0.011016709 0.02599272
000230 d2 52 ae 3c 59 c3 35 3d b2 f3 0a 9f 31 be 1a 3d
       0.021279726 0.04437575 -2.9424217e-20 0.037779037
000240 33 8f c3 3b d8 62 ee bc 91 b6 f3 bc 30 61 06 3d
       0.0059679984 -0.029099867 -0.02975014 0.03280753
000250 84 67 0f 3d b1 be b0 bc fe 11 da 3c 17 5e 12 bd
       0.03501083 -0.021575304 0.026619907 -0.035734262
000260 5b 14 2e bb 33 bf ca 3d fe b3 bd b9 c7 f3 14 3d
       -0.0026562426 0.098997496 -0.00036182994 0.036365297
000270 0a 62 92 3d b7 4a f4 3c 9c a7 7a bb fd 46 06 3d
       0.07147606 0.029820783 -0.0038246876 0.032782543
000280 de 08 dc 3c 6d 8b 6d 3d d2 49 0e 3d 2f b8 94 3d
       0.026859697 0.057994295 0.03473837 0.07261693
000290 85 10 cc 3c d4 9e e5 bb 42 d0 0c bc 86 08 b0 bb
       0.02491022 -0.007007459 -0.008594574 -0.00537211
0002a0 1c 60 36 bd 51 d5 27 bb 85 2a f7 3b 02 0c 8c 3d
       -0.04452525 -0.0025609324 0.0075429105 0.06838228
0002b0 11 4f 84 3c a2 3b fa 3c 44 e6 55 bd 2d 7a 35 bc
       0.016150983 0.030546013 -0.05222155 -0.011076492
0002c0 e3 2d f1 3c 0b b4 d6 3a c8 da c0 3c 7f d0 80 3d
       0.029440826 0.0016380561 0.023541823 0.062897675
0002d0 46 7f 84 3d 94 4c a6 3c ea c9 e7 3c 44 89 89 3d
       0.06469588 0.020300187 0.028294522 0.067156345
0002e0 b7 1a e7 ba 8f 5d 6e bd f4 12 70 3d 48 00 82 bd
       -0.0017631863 -0.058194693 0.058611825 -0.0634771
0002f0 35 c4 0f bc 5c 8d 54 3c cc ec 2c bb 39 ad a3 3d
       -0.008774807 0.012973156 -0.002638626 0.07992024
000300 de 9c 37 bc 4f f8 db 3c bc a1 9c bc aa f7 3b bd
       -0.011206834 0.026851801 -0.01912009 -0.045890488
000310 ea 32 6f 3c ff 7e 52 b4 71 45 28 3c 46 05 63 3c
       0.014599541 -1.9603975e-07 0.010270462 0.013856238
000320 26 5a d2 3c 8b 1f bb 3b 93 58 67 bb 15 82 04 bd
       0.025677752 0.0057105473 -0.0035300597 -0.03235062
000330 f5 fb 0f bd ca 68 e9 bc c7 d4 e0 ba e3 4d 80 3c
       -0.035152394 -0.02849235 -0.0017153256 0.01566214
000340 90 66 f6 3c 12 9d eb bb de a6 4c bd e0 ef 39 3d
       0.030078202 -0.007190355 -0.049963824 0.04539478
000350 4e 79 50 3c 0e 75 10 3d 46 8c 9a ba 9d 48 55 ba
       0.012724234 0.035267882 -0.0011791072 -0.00081361254
000360 b3 06 1d bc 45 4d 29 ae b9 9f 8a bb ba bb 6c bb
       -0.009584117 -3.849478e-11 -0.004230466 -0.0036122636
000370 4d 73 1c bd c0 38 02 3d 91 9a a4 3a 08 29 ae 3d
       -0.038195897 0.031792402 0.0012558271 0.0850392
000380 9b 2c d5 3c 9c c5 41 3b 5c 14 70 3d b3 38 11 b7
       0.026022246 0.0029567247 0.058613166 -8.655875e-06
000390 a5 0a 40 bd 93 8f 4f 3c e0 a4 63 3d b8 89 0a 3d
       -0.04688515 0.012668508 0.05557716 0.033822745
0003a0 0e a3 96 3b da 4f 85 3d 4d e9 e0 3c f8 7a 14 3d
       0.0045970744 0.06509371 0.027454996 0.036250085
0003b0 d7 2c 03 3d 71 2c a9 bc ea bb 6c 3d fa 2f 3c 3d
       0.032025184 -0.020651074 0.057796396 0.04594419
0003c0 49 ab 3c bc 81 a5 47 3c 4b 5f 23 3d 2f 1c 86 ba
       -0.011515447 0.012185455 0.0398858 -0.0010231788
0003d0 79 6d 21 bc 63 dd d7 3c 6d c4 00 3d 2e 5f a6 bc
       -0.0098527605 0.026350683 0.031437326 -0.020309057
0003e0 8f a5 3c bc 04 8b 58 3d 1a a8 53 bd 47 bf 96 3d
       -0.011514082 0.05286695 -0.051673986 0.07360702
0003f0 b2 be 5b bc 7f cc 20 3d d2 2b b5 3d a7 74 13 3d
       -0.0134121645 0.039257523 0.08846249 0.03599992

classifier.weight f4 [4, 256]
000000 be 09 74 3c 0c 31 c1 bb 16 eb 7f bc 34 12 f6 3a
       0.014894901 -0.0058957394 -0.015620014 0.0018773736
000010 4b 12 82 3b 3c 51 b8 22 df 2a 50 3c d1 cf 30 bd
       0.003969466 4.995931e-18 0.012705534 -0.04316694
000020 cf b1 03 bd d4 a3 df 3d 8d 92 18 3d a1 34 a0 3b
       -0.032151993 0.109199196 0.037249137 0.0048890864
000030 e2 31 d1 35 ac 10 b6 3d df 27 aa 3c 0a 1c 2c 3d
       1.5586231e-06 0.08889899 0.020770965 0.042018928
000040 d1 4d 9a bb f0 f7 f1 3d 47 63 7f bd 7d 98 14 be
       -0.0047089835 0.118148685 -0.062350538 -0.14511295
000050 93 19 65 3b 90 d5 46 bd c3 14 9d 3d 2f 96 d3 3d
       0.003495787 -0.048543513 0.076699756 0.103313796
000060 ef f0 ae 3d 9f aa 61 bd bd 0e 8e bd 48 f1 91 3c
       0.08542048 -0.055094358 -0.06936405 0.017815247
000070 29 30 4e 3d 26 36 b4 3d 26 cc 90 bd be f7 c0 bd
       0.050338898 0.087993905 -0.07070188 -0.09422253
000080 1b 50 a9 bd e0 f1 5a bd ee 2e f0 bd 42 cf de 3b
       -0.08267232 -0.053453326 -0.11727701 0.0067996094
000090 ee de 9f 3d 3d 5b 4a bd cb 4a 34 bd ae 70 37 3c
       0.07806192 -0.049403418 -0.04401664 0.0111962985
0000a0 c2 4f 3d 32 53 93 09 bc e1 00 98 bd 31 7a 8a bd
       1.1019383e-08 -0.008396941 -0.07422043 -0.067615874
0000b0 5c b7 17 3d 8a 1b d4 38 f7 a7 ad bd 70 74 c6 3c
       0.0370401 0.00010114077 -0.084793024 0.024225444
0000c0 72 6c df 3b 98 3a d8 3d 8c 03 82 bd 60 8d 1c bb
       0.0068183476 0.10558051 -0.06348333 -0.0023887977
0000d0 19 89 00 00 b0 55 01 3e eb 7d 22 bc 57 96 94 bd
       4.9181e-41 0.12630343 -0.0099177165 -0.072552375
0000e0 d0 ec 91 ba 91 35 ab bd 29 58 9f 3d 77 6d d6 3d
       -0.0011133198 -0.08359826 0.07780487 0.104700975
0000f0 c3 8c 76 bd 00 42 28 3d 7f ce 63 3c e6 a1 bb 3d
       -0.060192835 0.041078568 0.013904213 0.09161739
000100 87 db 16 bb f5 54 b6 3c 19 55 c3 3b 1a e4 c2 3d
       -0.0023019032 0.022257308 0.005961072 0.09516163
000110 52 3d 6f bb 71 14 99 3d 8d 75 c0 bb 01 ac 88 bd
       -0.0036505056 0.07474602 -0.005873388 -0.06673432
000120 9f 7c 88 bd 4a 74 e1 bd b1 4b e0 bb a3 93 68 3c
       -0.066643946 -0.110085085 -0.0068449606 0.014195356
000130 90 02 d1 3c 0c 1d f9 3c e4 07 85 3d 66 4b 81 3d
       0.025513917 0.030409358 0.06495646 0.06313209
000140 b0 22 95 bd 9b 3f b9 3d 1e 66 f2 3d 9f 4c e8 3c
       -0.07282007 0.09045335 0.118358836 0.028356848
000150 b1 14 62 3d dc 79 17 3d 01 92 0f 3a 1f ee 43 bd
       0.055195514 0.03698145 0.00054767734 -0.04783451
000160 1d 33 3c 3d 31 f7 b6 ba cf 65 e4 bc 2a 71 8d bd
       0.045947183 -0.0013959167 -0.027880577 -0.0690635
000170 b7 d7 e5 bc 06 de f8 3c b5 4d d5 3d 35 45 a9 3c
       -0.028056962 0.030379307 0.10415212 0.020662883
000180 d7 e7 ae bc b3 2f fe bc 3d 14 a1 3d f2 3b ea 3d
       -0.021350784 -0.031028604 0.07865188 0.11437215
000190 d5 7a 81 3d 4a 8b 93 bd 04 ed 1c bc 16 b0 4b bd
       0.063222565 -0.07204302 -0.009577993 -0.049728476
0001a0 ee 22 66 bc 97 7f 34 bd 68 6b a6 bc 77 b1 dc 3d
       -0.014046414 -0.04406699 -0.020314887 0.10776036
0001b0 f6 49 3c 3d 34 f7 a4 3d 82 42 ad bd e3 4a 7a bd
       0.045968972 0.08054963 -0.08459951 -0.061106574
0001c0 6e 87 93 3c 90 53 d1 bd 64 9b c3 bc 9c 90 c5 bd
       0.018008914 -0.102210164 -0.023877807 -0.09646723
0001d0 f9 5a 48 bd 6c c5 d6 bd 33 b4 81 bd ca e5 f0 3c
       -0.048914883 -0.10486874 -0.063331984 0.029406447
0001e0 bc 94 97 bd 62 81 4b bd a2 25 d3 3d 96 ef d2 bd
       -0.07401416 -0.049683936 0.10309912 -0.10299604
0001f0 2a 3b 8b bd 45 02 9c bd a8 f0 d2 bc 4f eb 38 3d
       -0.06798394 -0.076176204 -0.02574952 0.045146283
000200 64 1f 73 23 76 8c 94 bd 13 21 b6 3d a7 13 3e ba
       1.3179704e-17 -0.07253353 0.08893027 -0.0007250853
000210 e8 20 a8 83 8a b7 7a 3d 0a fc 79 bd e5 82 de bd
       -9.8817075e-37 0.061210193 -0.06103138 -0.1086481
000220 a9 cd 2f bd 52 b2 e1 bd 07 7e 75 3b 94 27 96 bd
       -0.042920742 -0.1102034 0.0037459151 -0.07331768
000230 bf e1 49 bc 1e 3b b1 3b 1c 65 d1 85 09 cb 6c 3b
       -0.0123218885 0.0054086586 -1.9691407e-35 0.003613176
000240 d2 f3 92 3d 8f 4e 78 3d 9c f1 d8 3d d2 74 a4 3d
       0.07175411 0.060621794 0.10592958 0.08030094
000250 e9 76 c0 bd 20 75 d0 bd ee e2 eb 3c fb 47 e4 3d
       -0.0939768 -0.1017859 0.028794732 0.11146542
000260 86 44 0b bc 4f d1 7c bd 16 c3 64 3c 2b d2 c9 bd
       -0.008500224 -0.06172305 0.013962528 -0.098545395
000270 d4 30 b1 bd 19 6e 1c 3c 12 ca ed 3d fe a6 69 bc
       -0.08651891 0.009547734 0.116108075 -0.014261005
000280 5a d5 e0 bc 4e dd 23 bc 2a af 42 bd 53 5d ef bd
       -0.027445484 -0.010001494 -0.04753033 -0.11687722
000290 d2 7f a3 bd 08 b3 cb 3d 66 c3 5b 3d ab 7a d7 bd
       -0.07983364 0.09946257 0.053653143 -0.10521444
0002a0 59 e4 d8 3d e7 e2 30 3c 01 ea 3b 3d 4b 5d 31 bd
       0.10590429 0.010796285 0.04587746 -0.04330186
0002b0 52 64 a6 bd 9a 3e 5f bd 06 e3 91 3d a6 fd 73 3d
       -0.08124603 -0.05450306 0.071233794 0.05956807
0002c0 d8 b4 b4 bd 1b 3e b8 3d 6a b6 0f 3d 31 e9 d6 bd
       -0.08823556 0.08996221 0.035086073 -0.104936965
0002d0 c1 d6 53 3c 8f c9 12 bd 26 c3 b4 bd 3c 65 8f bd
       0.012929619 -0.035836753 -0.08826284 -0.07001731
0002e0 cf b5 39 b7 60 15 c5 3d 1b 25 7f bc 7c 69 1a 3d
       -1.106919e-05 0.096232176 -0.0155728115 0.037698254
0002f0 8a 36 95 3c af 1a 0b bd bb e3 16 3d a5 6e a3 bd
       0.018214483 -0.033960994 0.036838274 -0.07980088
000300 82 33 e7 3d 70 a8 a4 3c 2a 94 f1 3d 1a b8 8c 3d
       0.11289121 0.020099849 0.11795838 0.06871052
000310 af 87 bf 3c 4c 13 9f a6 0c eb 2a bd eb 0a 9f 3c
       0.023380129 -1.1038072e-15 -0.041728064 0.019414386
000320 27 aa 44 3d 1a c3 0e 3d 65 3f 06 bd 93 b7 52 bb
       0.048013832 0.034854032 -0.0327753 -0.0032152876
000330 d6 65 50 3d 24 f5 02 3e 4b 93 7f bd 95 5f 83 3d
       0.05087837 0.12788826 -0.06239633 0.06414715
000340 98 b8 25 3d 15 84 b5 3c 14 33 00 3e 94 a3 56 bd
       0.040459245 0.022157708 0.12519485 -0.052402094
000350 88 32 b0 3d c5 39 76 bd 7f 19 48 bd 45 a9 97 3d
       0.08603388 -0.060113687 -0.04885244 0.074053325
000360 7f 47 ac 3d 05 26 57 b5 15 37 88 bc 41 f0 ce bb
       0.08412074 -8.0149067e-07 -0.016627828 -0.0063152616
000370 ad b9 1e 3d 66 0f 8f bd 63 2b b2 bd 67 9e f1 bc
       0.038751293 -0.06985359 -0.086996816 -0.029494477
000380 65 77 c2 3c 23 87 6e 3c cd 18 8e bd 03 15 a0 36
       0.023738572 0.014558586 -0.06938324 4.7708177e-06
000390 81 82 06 3e 26 96 a6 bb 86 1d 1a bd d2 2c 86 3d
       0.13135721 -0.005083817 -0.037625812 0.065515175
0003a0 fa 76 a8 3a 5d 60 5b 3d 16 5a a4 bd 5e ff 00 3c
       0.0012852841 0.053558696 -0.08024995 0.007873384
0003b0 a8 29 df 3b ed 24 2d 3b be 7f 78 bd d1 43 26 bc
       0.0068103857 0.0026419715 -0.0606687 -0.010148005
0003c0 5f 54 78 bd 01 e5 ed bd 9a b2 ce bd 72 f6 b2 3a
       -0.060627338 -0.11615945 -0.10092659 0.0013653769
0003d0 42 12 98 3c 2c b0 47 bd 31 6c 3a bd 0c 47 05 3e
       0.018563394 -0.048751995 -0.045513336 0.13015383
0003e0 07 f4 4c bd a7 3d ef bd 18 0b 85 bc 66 bd d4 bd
       -0.05003741 -0.11681681 -0.016240641 -0.103876874
0003f0 46 70 18 3d 93 e3 b9 3c 8f ab cf bd f4 43 cf bd
       0.037216447 0.022691524 -0.10140144 -0.10120383

classifier.bias f4 [4]
000000 f3 f7 5f bd 1f ab dc bc 10 9a fc bc 62 09 e0 3d
       -0.054679822 -0.026937066 -0.030835181 0.1093929
