src/cnn_emotion_regressor.pth (torch, 519464 bytes, 8 tensors)

encoder.0.weight f4 [64, 12, 5]
00000000: 28e2 a0bb c1bf e1bc 5032 a3bd ad39 003e
00000010: 010b 7b3d 391a aebc cbcd f5b9 1def 04be
00000020: 4806 aebd f217 aa3d 187f 933c 06a1 fcbd
00000030: 272f 293c e045 84ba 95b7 b13d 796b 85bd
00000040: eff6 a3bd 3c21 9c3d 534d d6bd 0bb7 8a3c
00000050: e4fa 68bd 1fcd a9bd f2a0 323e 131d 4d3c
00000060: 8e79 72bd 343a ec3d 8bd0 013e 7a24 abbc
00000070: 2fa9 cebd 42ea aebc 23ba 0b3d 95a1 55bd
00000080: 1690 b7bd f888 b33d 5568 ddbd e60c 8b3c
00000090: d0a1 8b3b 5118 a13d 4591 b5bd 73ae ccbb
000000a0: 9aa3 cabd 7dee 7cbd 1714 013d b5d6 8cbd
000000b0: 7a6b b5bc 72e1 143e 8e6d 173d add3 2b3c
000000c0: 4f43 5f3d fc73 57bd ccf5 ba3d 8b7a cdbd
000000d0: 8134 933d f43b 0e3d 79b4 473c 53e5 e53d
000000e0: 4e49 0d3e 9704 c4bc 2264 c5bc a6bf cb3d
000000f0: 84aa d73c a1d8 fc3d 46fb 023e 00c0 423d
00000100: b2ed b2bd 154c 6c3d 39c9 0abe 1898 92bd
00000110: 3592 b63c 2ca0 ef3c 91aa 25bd 1a2d cdbd
00000120: 6e34 71bd 0c04 e13d 46d3 133e 6b00 8c3d
00000130: 9ea4 653d 8fae 49bd b4f3 05be fb14 d3bd
00000140: e9ce e6bd ebd8 debd e22f bcbd 17f6 f4bc
00000150: 2928 01be 4579 303e b7ac 223e cc5b ddb9
00000160: 6c78 1bbe 2d04 ebbd 36d0 1d3d a587 e8bd
00000170: 8aa5 d73c 85b6 82bc 5fd3 16be a3a7 adbd
00000180: 1d7b 833c 971e 6c3d a048 033e 3d0c ab3c
00000190: ac90 49bd 4ed7 103d 5b8c 0a3d 5d40 813d
000001a0: d985 f3bd cd00 66bd 6707 58bd ac07 abbd
000001b0: eb25 433c 5a82 4fbd ef3f c83b d88b 9b3d
000001c0: 89fc c53d eace b3bc 09a4 eebb 2e36 d23d
000001d0: 5945 babd 20ae 903d 4427 2a3d 2684 6dbd
000001e0: 695c 77bd 6b90 3f3d 8224 403b 297e 173d
000001f0: c65f 063e e4e1 87bb dde2 ee3b 9a1b cc3c
00000200: f1d2 733d 918c bd3c b6ec d53d 96ab 71bd
00000210: 53fa 7bbd 3336 9e3d c257 493d 9a38 ab3d
00000220: 08eb 173c c60e d93c 5875 6cbc 6a9f e1bd
00000230: fb7f 4fbd d28a 4c3d a66d 513d a1e1 b2bd
00000240: b4a3 243e 17c5 22be 36b1 01bd b17c e73c
00000250: 215f 87bd 7055 513d 0be8 35bd 1032 e03c
00000260: a42e 94bd 04b3 20bd d204 b7bd 5ffe 823d
00000270: 451a 54bd 647a c13d 0b21 64bc 2ea6 8e3d
00000280: 125b 80bc 4333 023d 464b 7d3d e2f8 90bd
00000290: 024e 75bd 7f72 5c3d c369 f0bd 6a60 8c3d
000002a0: 0cbb bdbd adb8 d33d c10c efbd 68e2 913d
000002b0: 1619 8dba db6a b0bd 0ca6 033e ba8a ab3d
000002c0: aea1 b9bd ab0f 49bd 0e7a d6bc 9f74 b33d
000002d0: f208 24bd 9c92 eebd a30b 8a3c 25c7 ad3d
000002e0: 91ed 8bbb 36bd ccbd b81d 90bd d3f3 7abc
000002f0: 58d0 d9bd 5723 c0bd e1e1 a5bd 8f9a 84bc
00000300: fa0a e9bd cb1a c3bd 6088 5abd 539a 32bd
00000310: 6253 99bb 1cfa 523d 5774 08be d952 a4bc
00000320: 1a17 87bd 0f60 a33d 2ed9 d53c fd5d b83b
00000330: f679 18bd 92fe 4bbd b855 a9bc 8e6f 263c
00000340: 4ec5 913d d749 a53d 387f 84bd bd45 86bd
00000350: d796 973d 3d95 0e3d 3933 483d abb4 c03d
00000360: 9340 c43d 94d7 b4bd 9fd1 c5bd 2ca2 b13d
00000370: c29a 523d 0b10 b13d c901 c3bd 12ba 9d3d
00000380: 8c11 0fbe fbaf b33d c84b 293d 36e2 993d
00000390: fccd 7ebd 957d 14bc 1f05 2d3d 92bb 74bd
000003a0: 108b 273d 6ea9 a23d e438 acbd cdb4 dcbd
000003b0: fc8c 0b3d 0e64 113d 512a dc3d dcce b9bb
000003c0: d9ea f6bd 4da9 e9bc 98bb 7fbd eceb 073d
000003d0: fa83 c53c 0193 fabc 037e d03d bf6a 153c
000003e0: ada4 4e3d 1158 e73b e081 40bd 7bb6 cb3d
000003f0: 4668 b13d 0ad3 aebc 27cd 8abc 9814 a6bc
-0.0049097724 -0.027557256 -0.07968581 0.12522002 0.06128979 -0.021252738 -0.0004688337 -0.1298184
-0.08497292 0.083053485 0.018004939 -0.123354 0.010326183 -0.0010091625 0.086775936 -0.065146394
-0.08006083 0.076235265 -0.10463967 0.016932985 -0.056879893 -0.08291077 0.17444208 0.012519139
-0.059197955 0.11534539 0.12677209 -0.020891417 -0.10090863 -0.021351937 0.03411306 -0.05215605
-0.08963029 0.08766359 -0.108109154 0.016973924 0.004261233 0.07865966 -0.088655986 -0.006246382
-0.09894486 -0.061750878 0.0315133 -0.068768896 -0.022145975 0.14539126 0.036969714 0.010487479
0.05450755 -0.052600846 0.09128913 -0.10033139 0.07187749 0.034725145 0.012189024 0.11225381
0.13797495 -0.02392797 -0.024095599 0.099486634 0.026326425 0.12346006 0.12791166 0.047546387
-0.08736743 0.057689745 -0.13553323 -0.07157916 0.022286514 0.02925118 -0.040445868 -0.10018368
-0.05888789 0.109871 0.14436063 0.06836017 0.056065194 -0.049238738 -0.13081247 -0.10306736
-0.11269934 -0.108812176 -0.091888204 -0.029902501 -0.12612976 0.1723376 0.15886198 -0.000422208
-0.15182656 -0.11475406 0.038528644 -0.11353997 0.026324052 -0.015956173 -0.14729069 -0.0847924
0.016049916 0.05764636 0.12820673 0.02087986 -0.049210235 0.03536158 0.03382526 0.063111044
-0.11890764 -0.056153107 -0.052741434 -0.08351073 0.011910896 -0.050661422 0.006111137 0.075950325
0.09667308 -0.02194925 -0.007282738 0.1026424 -0.09095258 0.07064462 0.041541353 -0.057987355
-0.060390864 0.046768587 0.0029318635 0.03698555 0.13122472 -0.0041468013 0.007290228 0.024915505
0.05952734 0.023138316 0.1044554 -0.059001528 -0.061518025 0.077251814 0.049155958 0.08360405
0.009272344 0.026496302 -0.014432274 -0.11016734 -0.05065916 0.049937077 0.05112996 -0.087344415
0.16078073 -0.15895496 -0.031663142 0.0282577 -0.06609941 0.05110687 -0.044410747 0.027367622
-0.072354585 -0.039233223 -0.08936466 0.06396174 -0.051782865 0.09447172 -0.013923894 0.0696529
-0.015668426 0.03178717 0.061839364 -0.07078721 -0.059888847 0.05382013 -0.117389224 0.06854327
-0.09264192 0.103379585 -0.116723545 0.07123262 -0.0010764922 -0.08614131 0.1285631 0.08376069
-0.09064041 -0.049087208 -0.026181247 0.08762478 -0.040047593 -0.11649057 0.016851252 0.084852494
-0.0042702635 -0.099970266 -0.070369184 -0.015316921 -0.106354415 -0.093817405 -0.080997236 -0.01618698
-0.11379047 -0.09526595 -0.053352714 -0.043604206 -0.0046791295 0.051508054 -0.1332563 -0.020059036
-0.06596203 0.07977306 0.026104536 0.0056264387 -0.037225686 -0.049803324 -0.020670757 0.010158433
0.07117711 0.080707245 -0.064695776 -0.0655627 0.07401817 0.034810293 0.048876975 0.0940946
0.09582629 -0.08830181 -0.09659123 0.0867351 0.05141712 0.08645638 -0.09521825 0.07701506
-0.13971537 0.087738 0.041332036 0.075138494 -0.06220816 -0.009063144 0.042241212 -0.059749193
0.040904105 0.079424724 -0.084092885 -0.107766725 0.03407 0.03549581 0.10750259 -0.0056704115
-0.120565124 -0.028523112 -0.062434763 0.033183977 0.024110783 -0.030587675 0.10180285 0.0091196885
0.050450016 0.007060059 -0.04699886 0.09946915 0.08662467 -0.021340866 -0.016943527 -0.020273492

encoder.0.bias f4 [64]
00000000: 8789 c1bd abcb e2bc 3e0b 8b3d c761 4bbc
00000010: 79d8 1cbd e435 863c 06dd e9bd 3dad d93c
00000020: 39a9 be3d 4265 ecbb 2c45 0b3e 3cec c5bd
00000030: 3c7a bf3d c33e 7abd b407 a23d 559d e3bc
00000040: b231 3ebd 3a20 33bd 2b3d 293d b2f1 a03d
00000050: d3a5 0a3e 2607 5fbe 5b3b 5c3c 88b1 f63d
00000060: 89de f43d 1436 26be fa52 72bc a5b0 7bbd
00000070: c516 d03b 2dcb 03be 7be7 fbbd 6d54 4dbd
00000080: 0fd0 d83d 62c7 ce3d d418 bbbc 343f 3ebd
00000090: 15c2 533c 565e 75bc 91e9 5fbd 54a5 91bd
000000a0: 30df 28be 0ed7 fdbd bc2b 31be 0ce7 f1bd
000000b0: adb1 23be 058b 853d 56ad 88bd 6ed8 f13d
000000c0: 6e72 31bb db03 ab3d c74b 9fbd 9bc6 80bd
000000d0: 88cf 20bd cc5f 123e 6f9a 4fbe deb0 dbbc
000000e0: 0ba4 913a ef9a 4fbd 48fa abbd 68e2 923b
000000f0: e195 1fbe a34f 7cbd 034f 1bbe cf5e 523d
-0.094500594 -0.027685007 0.06789254 -0.012413449 -0.038292382 0.016383119 -0.1141911 0.026571864
0.093096204 -0.0072142193 0.13600606 -0.09664199 0.09349486 -0.06109501 0.079116255 -0.027784983
-0.046434112 -0.043731906 0.0413181 0.078586 0.1353982 -0.2178007 0.013441886 0.1204558
0.11956508 -0.16231567 -0.014790291 -0.06144776 0.0063503706 -0.12870474 -0.12300011 -0.050129343
0.10586559 0.10096623 -0.022838987 -0.046446994 0.012924691 -0.014976105 -0.054666106 -0.07111612
-0.1649139 -0.12394534 -0.1730184 -0.11811647 -0.15985747 0.065206565 -0.06673686 0.11808859
-0.0027076262 0.08350345 -0.07778125 -0.06287881 -0.039260417 0.14294356 -0.20273755 -0.026817735
0.0011111511 -0.050684866 -0.08397347 0.004482556 -0.15584518 -0.061599385 -0.1516686 0.051359948

encoder.3.weight f4 [128, 64, 3]
00000000: 4af9 50bd becd ae3c 92ee 633c fe8f 653d
00000010: ab51 063d 9281 993c 1d76 1bbd 630c 94bd
00000020: a7f8 0e3d 60b5 c5bd 7ea9 c6bc ff40 3dbd
00000030: 3dc2 713d 9aa4 c23c 36d0 863d 4187 dc3c
00000040: 8f4e ac3c 8a9e 50bd 6266 9a3c 1fb9 e6bb
00000050: ebb8 2f3d aad6 9bbc dc01 08bc 4344 3abd
00000060: 08b2 e03c f4ad 40bc e755 543d f3c4 443c
00000070: 4896 89bd 9f0a 773b f094 09bc 7a9e 833d
00000080: 25b1 173c 45b7 7f3d a357 82ba 1c18 193d
00000090: 72d2 62bd 4108 80bd 6787 f2bc 9f9b 73bd
000000a0: 765e 203d c217 b2bd 9997 58bd 836f 89bd
000000b0: 2ed8 3fbc 1f8d 423d 25b4 32bd cb90 18bc
000000c0: 8a7b 373d 8380 a5bd 81f5 b9bd e6f6 8cbc
000000d0: 6754 003d dc3b c0bc 1787 9f3c b9bc eebc
000000e0: aecd 593d b33b b0bd 3135 133d 58f0 61bd
000000f0: 4fc9 ecbc 979f 103d 8b15 463d d097 d53d
00000100: 9bef a63d 4366 2f3c de39 763d 466d 25bd
00000110: a231 f0bc 04b8 a23d 62e0 8e3d fc44 ad3c
00000120: 3866 44bd b820 67bd 3513 8ebd 7914 36bb
00000130: 355a dbbb ee87 87bd 1390 9bbd 6a8d 79bd
00000140: 4f74 423d 92a6 06bb a049 743b 0d15 77bd
00000150: 4a31 c8bc d69f 0a3d a1a6 503d cafe 743d
00000160: 4401 ecbc b01e 2d3d 4511 443c e714 223b
00000170: 99cc 143c ed72 273d 8695 d23c 95f8 3ebd
00000180: 9408 a9bd ea32 3d3d 92dc 4ebc e4a7 08bd
00000190: e5be b1bd 46cc 83bb 8ea1 b8bc 6287 2b3d
000001a0: c478 623d 5c4f 873d ec88 5cbd ff80 923d
000001b0: 790d 2cbd 922e 193c d598 0dbc 5738 09bd
000001c0: 091d cb3c c60b 273c b2a2 86bd 656b a1bd
000001d0: 5180 92bd ff3a c73c 118d 72bd 625e 22bd
000001e0: 80fe 3eba 2563 213d 9920 d0bc d415 14bd
000001f0: e7b0 3ebd 66da 4ebd ecac 0d3c a4ee 20bd
00000200: 0089 563d 723b 98bd 23d9 913d 8187 8e3d
00000210: e05b 073d 550f e9bc 1b5b 973a 6f35 403d
00000220: 52e1 7d3d 18db a23c 5a43 84bd ec09 6b3c
00000230: 52e1 0ebd 0855 4bbd acf1 963c 0ad0 4bbd
00000240: 0f54 1bbb 9abd 853d 738f a63d 0118 c9bd
00000250: b045 7bbd 7b3b 2d3d 266b 133c 4c6b 323d
00000260: 564b b63d 83c4 823c a6e9 e8bb 30a0 b5bd
00000270: 383f dd3c 2382 3c3a e88a de3b 3330 83bd
00000280: 363b f2bc 5151 b0bd d9f1 873c e07c 613d
00000290: 1601 43bd 8ed7 8cbd 4f00 8bbd d9ab f23b
000002a0: 7ff9 993d 46dd 213b f4e7 a739 beb9 f8bc
000002b0: 4dd3 4a3c ade3 a7bc 1b2b 2abd 377c 383c
000002c0: 06f4 15bd 0604 34bd fb17 abbd 6973 9bbd
000002d0: ceba 9bbd 29c1 60bd f2e6 00be 721c bd3c
000002e0: 80c1 96bd 9935 11bd b4ee 98bd 5243 223d
000002f0: 0752 91bd 31af 803d 6e0a 253c a9f8 393d
00000300: 5659 703d 3d84 dbbc e6f7 53bd c6d1 8f3d
00000310: 6231 d4bc 5aed 593b 93d2 98bc 2e33 173c
00000320: 8063 7bbd 6970 933d 53d8 9b3d c91e 553d
00000330: 6af9 88bc 7689 74bd 212c 46bd 9615 b23d
00000340: 3b27 323d 6a79 b23d b30d 51bd 2f03 8abc
00000350: 9116 fabc 93af 11bd 6dfe fcbc bbde 88bd
00000360: 856e 133a 479a 2b3d 55f2 833d b964 4c3d
00000370: 620f 8bbd 0b8c 813c 3b74 dd3c 8888 5bbc
00000380: 9446 7ebc db05 833d ee86 6d3d ed50 32bd
00000390: 787e c2bd 713c c5bd 877f d8bd 8db1 7ebb
000003a0: 9d01 a13b 239b 20bd 7c88 70bd 6308 12bd
000003b0: c9b6 b9bc eb85 e7bc a3a5 d33c 6de7 9dbd
000003c0: 3d2d 92bd ea3f 95bb ea6e cc3c 9d32 03be
000003d0: edb0 1bbd 63a2 c3bd 95ec 31bd 1582 2ebc
000003e0: f5b4 873d a933 6ebd c7e5 7cbd e11a 993c
000003f0: b09d 023c 6309 a63a d16c 9ebd 44d3 673b
-0.05101899 0.02133834 0.01391186 0.056045525 0.03279273 0.018738542 -0.03795444 -0.07228925
0.034905102 -0.09653735 -0.024250742 -0.046204563 0.05902313 0.023760129 0.06582682 0.026919963
0.021033553 -0.050932445 0.018847648 -0.007041111 0.04290096 -0.019023258 -0.008301225 -0.045475256
0.027428642 -0.011760224 0.051839735 0.012009847 -0.06718117 0.003769554 -0.008397326 0.064267114
0.009258543 0.06243064 -0.0009944331 0.037376508 -0.055376478 -0.06251574 -0.02960558 -0.059474584
0.039152585 -0.08695938 -0.05287895 -0.06710722 -0.011709256 0.047497865 -0.04362883 -0.009311865
0.04479555 -0.08081152 -0.09080029 -0.017207574 0.031330492 -0.023466043 0.019473596 -0.029142724
0.053174667 -0.08605137 0.0359394 -0.05516085 -0.028904585 0.035308447 0.04836039 0.104293466
0.0815117 0.010705533 0.06011378 -0.040387414 -0.029320542 0.079452544 0.069763914 0.021151058
-0.047949046 -0.056427687 -0.06937257 -0.0027783199 -0.006694103 -0.066177234 -0.07595839 -0.06092588
0.0474742 -0.002054606 0.003727533 -0.06032281 -0.024437565 0.033843838 0.05094016 0.0598133
-0.028809197 0.042265594 0.011967008 0.0024731697 0.009081983 0.040881086 0.025706064 -0.046623785
-0.08253589 0.046191134 -0.01262583 -0.033363238 -0.08678988 -0.004022154 -0.022537973 0.041877158
0.055290952 0.066069335 -0.053841516 0.0715351 -0.042005036 0.009349482 -0.008642395 -0.033500995
0.024794118 0.010195678 -0.065740004 -0.07881812 -0.07153381 0.024320124 -0.059216563 -0.03964079
-0.0007285848 0.039401192 -0.025406169 -0.03615363 -0.046555426 -0.05050125 0.008647185 -0.039290085
0.052376747 -0.07433213 0.07121494 0.06959439 0.033046603 -0.028449694 0.0011547537 0.04692596
0.06198246 0.019879863 -0.06458159 0.014345627 -0.03488285 -0.04964164 0.018425785 -0.04975895
-0.0023701226 0.06530304 0.081328295 -0.098190315 -0.061345756 0.042293053 0.008997714 0.043559358
0.08901088 0.015962845 -0.007107931 -0.08868444 0.027007684 0.0007191023 0.0067914613 -0.06405678
-0.02956925 -0.0860926 0.016594814 0.05505073 -0.047608458 -0.06877051 -0.06787168 0.0074057397
0.07518291 0.002469854 0.0003202554 -0.030362006 0.01237948 -0.020494306 -0.041545015 0.011260084
-0.036609672 -0.04394915 -0.08354183 -0.07590372 -0.076039895 -0.054871712 -0.12588099 0.023084853
-0.07361126 -0.035451505 -0.07467404 0.039614983 -0.070957236 0.06283415 0.010073287 0.045403156
0.058678947 -0.026796455 -0.051750086 0.07022433 -0.025902454 0.0033253045 -0.018655097 0.009228511
-0.061374187 0.07199175 0.0760962 0.052031312 -0.016720492 -0.059701405 -0.04838193 0.086955234
0.043494444 0.08714564 -0.051038455 -0.016847221 -0.030528339 -0.03556783 -0.030883038 -0.066831075
0.00056240737 0.041895177 0.064427055 0.049900744 -0.067900434 0.015813848 0.027032962 -0.013399251
-0.015519757 0.06397601 0.057990007 -0.043534208 -0.09496778 -0.09630669 -0.10571199 -0.0038863153
0.0049135224 -0.03921045 -0.05872391 -0.03565253 -0.022670167 -0.0282621 0.025835818 -0.077101566
-0.07137535 -0.0045547383 0.024955232 -0.12812276 -0.038010526 -0.09552457 -0.043438513 -0.010651131
0.06626312 -0.058154736 -0.06174257 0.018689575 0.007972166 0.0012667592 -0.07735599 0.0035373727

encoder.3.bias f4 [128]
00000000: 9396 2c3c 7be8 683d 1cb7 693d bba5 62bd
00000010: f356 ab3d 1005 3abd d531 a4bc 9f54 83bb
00000020: ac87 063e c174 2abd eb3f 003d 8984 003c
00000030: 9d27 b73b bee7 803d 36ea db3c f590 9d3c
00000040: 7584 59bd 68ae 82bc 167d 14bd 2806 e43d
00000050: e6d1 e73d 4dcd 363b 2ce7 06bc d406 14bd
00000060: 2333 19bd e453 503b d3f1 d93c 6982 51bc
00000070: 6010 5fbd 4579 8fbd e0e9 993d ad1b 523d
00000080: 86e8 9e3c 8b04 a93d 9535 7b3d 705b ac3d
00000090: c827 283d b3f4 ef3c 96c2 aebd 55f5 c6bc
000000a0: efd1 c8bd 21c7 f9bc 71e4 b2bc 10b0 fdbc
000000b0: 19d5 5c3c dd9f 093c 3943 fb3b a3e0 a63d
000000c0: 21d5 1e3d c0ec c93d 3b36 90bd a686 363b
000000d0: 3a75 533d 0510 e1bd 91b2 133b d1c9 b8bc
000000e0: b542 acbd d8ad 25bc 680e bb3d 34ba 613b
000000f0: 4d3c 8bbd 9582 2fbd 1316 e93d c82e 013b
00000100: 4ee3 8bbc 0d68 bb3d f9e3 87bd 028a 6cbd
00000110: 00ff 7fbd 52df 50bd c9ae d13c accb e0bc
00000120: 3a9a fa3d 9d83 ab3d 7d87 b63c cc15 b9bd
00000130: 5519 85bd e3bb a8bd f1b0 313d e2ef 92bc
00000140: 9017 23bd 4c7b a7bc ff9c 87bc 2094 69bc
00000150: 2522 be3d 39dd bd3d 1e7d 493d b840 883c
00000160: cd8b 9d3a 7111 90bd 3962 19bd 9424 883d
00000170: a0b8 4f3d 84e0 46bd a3ee 89bd d1b6 193e
00000180: 00fa 8e3d cbf7 0f3d 7156 c63a f686 a93d
00000190: 4215 893d 0e70 52bc 8b18 83bd 3f22 133d
000001a0: 4252 a73c d687 173d 5ea9 713d 0f70 acbd
000001b0: c674 7a3c bc20 163d b807 243d 9d5a dc3d
000001c0: 6974 0fbd e435 5e3b 4d5d cdbc 730a dd3b
000001d0: 8c4b 02bc 5c34 86bd 11e6 8abd 7ed9 9fbd
000001e0: 7a00 c6bd 3efe 84bd e36c ce3d 09f8 fb38
000001f0: f786 2d3d 3ff4 843c db5b 9f3d 97df 16bd
0.010533947 0.056862336 0.057059392 -0.055333834 0.083661936 -0.045414984 -0.020043293 -0.0040078904
0.13137692 -0.04161525 0.031310957 0.007844099 0.005589439 0.06294201 0.026845079 0.01923416
-0.053104836 -0.015952304 -0.036252104 0.11133987 0.11319332 0.0027893365 -0.008233827 -0.036139324
-0.037402283 0.0031788284 0.026604569 -0.01278744 -0.054458976 -0.07005552 0.07515311 0.051295925
0.019397985 0.0825282 0.061330397 0.08415878 0.041053563 0.029291486 -0.08533208 -0.024286905
-0.09805667 -0.03049046 -0.021837445 -0.030967742 0.013478541 0.008399931 0.0076679257 0.08148315
0.038777474 0.098596096 -0.07041594 0.0027851253 0.051625468 -0.109893836 0.0022536854 -0.022557171
-0.08411161 -0.010112248 0.09133607 0.003444326 -0.06798611 -0.042849142 0.113811634 0.0019711722
-0.01707616 0.091507055 -0.06635279 -0.057748802 -0.062499046 -0.050994225 0.02559604 -0.027440868
0.12236448 0.083747126 0.022281403 -0.090373605 -0.06498972 -0.082389615 0.043381635 -0.01793665
-0.039817393 -0.020444535 -0.016554354 -0.014256507 0.09283856 0.092707105 0.049191587 0.016632423
0.0012019813 -0.07034577 -0.037447188 0.06647602 0.05071318 -0.04855396 -0.067349695 0.15011145
0.069812775 0.035148423 0.0015131963 0.08277695 0.06693508 -0.012844099 -0.064011656 0.03592133
0.020424966 0.036994778 0.05899941 -0.08419811 0.01528663 0.03665231 0.040046424 0.107594706
-0.035023127 0.0033906633 -0.025068903 0.0067456304 -0.007952582 -0.065529555 -0.06782163 -0.07805155
-0.0966806 -0.06493805 0.10079362 0.00012014813 0.04236504 0.016229747 0.07781192 -0.036834326

encoder.6.weight f4 [256, 128, 3]
00000000: be43 6dbd c091 68bd 4259 14bc 43a9 013c
00000010: 0549 bf3c cac8 4e3d 9916 253d b705 a3bb
00000020: c4c4 b53c 3179 1bbd 0316 04bc ab40 6e3c
00000030: d1c5 153c 830e 533c 2a93 5a3d f343 323c
00000040: a5b7 b33c efdb a9bc 2d24 f23c 1010 a53c
00000050: 0357 9c3b 5c37 6fbc a7e0 18bd 93e9 8fbd
00000060: 1a71 433d 212c c63c 0336 85bc be3b e9bd
00000070: 1af8 ccbd f6a6 81bd b062 e9bc dad7 5f3d
00000080: d225 83bc 428a d63c e987 46bb a1f3 25bd
00000090: fbd7 4e3d 2428 83bc 9d26 dbbc fdec 3b3d
000000a0: 8e9f 393d 6aea 2abd cedc 6c3b db2c eabb
000000b0: d442 453d 8ce2 923c d699 9c3c 0e03 fb3b
000000c0: 5347 66bb ef4a 72bd bd06 a83c c645 f63c
000000d0: f832 4e3b 7cb4 b8bc de2b df3c 04bc 953b
000000e0: 146a ca3b 7d8c a5bc 181d 463d 0ec3 393d
000000f0: b01a 163d 83ef 053d 7dfe dc3b d840 893c
00000100: d021 a93c f05f 713d 74d2 a0bb e3cb 093d
00000110: 1a40 fc3b 6b2c 013d 530d 203d 7e14 17bb
00000120: b38a 3bbd fd7f ae38 9a84 6fbd ec32 9fbc
00000130: aaa1 de3c 04c6 44bc 5199 30bd be5f 7cbc
00000140: 4458 3ebd 3589 b63b cd8a 16bd 282b 873c
00000150: e805 65bc 4a8a 49bd e19c 30bc bca7 0fbd
00000160: 70a0 4a3d bc57 9eba d545 4e3d 542c ca3c
00000170: ff5f bdbc cf3f b2bd 3140 59bd 17ac e1bc
00000180: 8029 473c 9c19 0e3d bbce 3f3d 7de1 4e3d
00000190: ee19 b63b 2de4 a9bc 0b5d 563d 7caa 103d
000001a0: e4f8 f4ba 1cbe 3d3c a142 5f3b 4b22 06bd
000001b0: 61dc 4b3d d315 403c 9f3e 30bd bdfd 463d
000001c0: 75f7 30bb 4e1c 87bb c59c 0e3b b459 a9bb
000001d0: a021 22bd 29e4 313c 6371 2a3d 3b93 a93d
000001e0: 24e0 e1bc cd58 1bbc 6267 2c3d 0f13 68bb
000001f0: 6e18 973d ba4d 343d 20e1 00bd 83e3 163d
00000200: 4731 23bb e44d 453d d978 ee3b 0450 453d
00000210: 6968 fcbc 0626 5fbd 94a9 3d3c 57c7 bbbc
00000220: aec3 a13c 70ca cabb c8af 55bd 3ecd 87bc
00000230: 6ece e03c 2179 313d cf0b 31bc 387c 643d
00000240: 97b8 89ba b1e6 eabc 25c5 12bb dff6 283d
00000250: 3fc1 05bd b537 4a3d 069a 5cbd fdcf 163c
00000260: 99b7 3dbc f242 abbc dc1a 503d 9f31 7cbc
00000270: c91c 88ba 5bdd a1bc 5dbf 893d b1e1 febd
00000280: 6a86 e8bd c818 dcbd 14b1 c1bc 06a1 6abd
00000290: 9d8e c03c 509d af3c f54a 003b 0096 413c
000002a0: 4a93 1bbb d871 2f3d 8973 063c fabb 49bd
000002b0: 2e0c 383b 0f81 633c 324e 693d 566d c2bb
000002c0: 1e36 033d 65a6 0abd 9f42 083d c90a f3bc
000002d0: d5db 9fbd 27fa e5bd 10fc d0bd c5c7 c53c
000002e0: ec57 3d3c a2ce aabc 485d 923c 202c 043d
000002f0: b5c6 6e3d c549 4ebd f1f8 febc 9b40 99bc
00000300: b6a7 0ebd 0aac 9b3b a9bc e23c 7ec8 493d
00000310: 7c11 083d 3432 353d 6faa 783c f5a2 a8bc
00000320: 6225 dfbc 7367 77bd 0727 a3bd 8a7b 32bd
00000330: ad4f 203d 60ba 133d 966a 803d 18b4 973c
00000340: ae55 26bd 7702 3abd acb1 2f3c 7740 2bbc
00000350: 2b44 18bc 3664 82bd 0e01 c7bc 411b 7ebd
00000360: 881b 2f3d b310 9abc d92f 0d3d a29c 1e3d
00000370: 03e3 c63c 171d 1d3d a013 043c dfe4 02bd
00000380: f36f 193c c1c6 22ba e35b 1a3d 2a11 ffbc
00000390: 0d9d 7d3d 5209 713d 9b72 fa3c 3c91 8ebd
000003a0: 9001 a3bd 02e3 9bbd e5d0 153c e3c8 76bb
000003b0: 81de b43b bf9f 893b 5aa5 88bc 0859 673d
000003c0: c4c9 10bd 17f6 99bc 7fe0 6abd bee3 6a3d
000003d0: 8d2f 853c d942 61ba fa93 bd3c 0c40 4ebb
000003e0: 0bc6 24bd c7e0 5f3d 20cb 2c3d dbe5 223c
000003f0: a621 713d d3c8 763d f9d3 9fbc bfc8 4e3d
-0.057925932 -0.056779623 -0.009054484 0.00791389 0.023350248 0.050484456 0.040304754 -0.0049750465
0.022188552 -0.037957374 -0.008061889 0.014541785 0.009141401 0.012881878 0.053363003 0.010880458
0.021938154 -0.020734755 0.029558266 0.02014926 0.004771115 -0.014600601 -0.03732362 -0.070269726
0.047715284 0.024190964 -0.016261106 -0.11388348 -0.10008259 -0.063306734 -0.02848944 0.05464921
-0.016009245 0.026188973 -0.003029341 -0.040515546 0.050498944 -0.016010351 -0.02675181 0.045880307
0.04531818 -0.04172746 0.0036142352 -0.0071464605 0.048159435 0.017930292 0.019116323 0.0076602763
-0.0035137727 -0.059153493 0.020511026 0.030062567 0.0031463485 -0.022547 0.027242597 0.0045695323
0.0061771963 -0.020208592 0.04836759 0.045352034 0.036646545 0.03269912 0.0067442046 0.016754553
0.020646006 0.058929384 -0.0049079005 0.033641707 0.007698071 0.0315365 0.039075207 -0.0023052986
-0.04578657 8.320806e-05 -0.058476068 -0.019433461 0.027176697 -0.012010101 -0.043114964 -0.015403686
-0.046470895 0.0055705556 -0.036753464 0.01650007 -0.013978459 -0.04920415 -0.01077959 -0.035072073
0.04946941 -0.001208059 0.050359566 0.02467934 -0.023117064 -0.08703577 -0.053039733 -0.02754788
0.01215589 0.03469239 0.046828013 0.05050801 0.0055572903 -0.020738686 0.052334826 0.035318837
-0.0018689898 0.01158097 0.0034066814 -0.032747548 0.049770717 0.011723953 -0.04302847 0.048581827
-0.0027002965 -0.004123247 0.0021760922 -0.005168164 -0.03958285 0.01085762 0.04161204 0.08280035
-0.027572699 -0.009481621 0.04209078 -0.003541175 0.073777065 0.04401944 -0.031464696 0.036838066
-0.0024901198 0.048169985 0.0072775898 0.048172012 -0.030811505 -0.05447962 0.011576075 -0.022922201
0.019746628 -0.006188683 -0.05216959 -0.01657736 0.027442183 0.04332841 -0.010806038 0.055782527
-0.0010507283 -0.028674455 -0.002239534 0.04125106 -0.032654997 0.049369533 -0.053857826 0.009204862
-0.011579418 -0.020905945 0.050806865 -0.01539269 -0.0010384555 -0.01975887 0.06725953 -0.12445391
-0.113537624 -0.10746914 -0.023644008 -0.05728247 0.023505503 0.021437317 0.0019575928 0.011815548
-0.0023738914 0.04283318 0.008206257 -0.049251534 0.0028083432 0.01388575 0.05695934 -0.005933444
0.032034032 -0.033850092 0.03326666 -0.029668229 -0.078056015 -0.112293534 -0.10204327 0.02414311
0.011556607 -0.020850483 0.017866746 0.032268643 0.05829497 -0.05036332 -0.031124564 -0.018707564
-0.03482791 0.0047507333 0.02767785 0.04926347 0.0332198 0.04423733 0.015177353 -0.020585516
-0.027239505 -0.06040139 -0.07966428 -0.043574847 0.039138485 0.036066413 0.0627033 0.018518493
-0.040609054 -0.045412507 0.010723513 -0.010452381 -0.009293596 -0.0636677 -0.024292495 -0.06203771
0.042750865 -0.018806791 0.03446946 0.038723595 0.02427817 0.03835782 0.00806132 -0.03195655
0.00936507 -0.0006209426 0.037685286 -0.031136114 0.061917353 0.05884678 0.030572226 -0.06961295
-0.079592824 -0.07611658 0.009144043 -0.003765636 0.0055196886 0.0041999514 -0.016680408 0.05648139
-0.03534867 -0.018794103 -0.057343002 0.057346098 0.016258026 -0.000859303 0.02314185 -0.003147128
-0.04022793 0.054657724 0.042185903 0.009942497 0.05886998 0.060250115 -0.019510256 0.050484415

encoder.6.bias f4 [256]
00000000: 58e5 b73c 82d6 b9bc 42a6 4c3c dde8 5dbd
00000010: 1b0f d13d 0a83 bd3d 8e3c 193d e8cc 9c3d
00000020: da1f 0b3d f3eb d93d 0fec 8a3c bb5f 853d
00000030: 8e9b cdbc 5049 3a3d 91d9 03be a56f 39bd
00000040: 0e3c 123e a62f acbd 64cb 7d3d 9491 50bd
00000050: 2db8 fa3b 4886 a23d 65fa 7e3c d050 62bd
00000060: 2310 ca3b 25b2 9c3d 2280 b23d 99b6 a53c
00000070: 9458 24bd bb36 76bc 7a5c f73c 8f3d 0bbd
00000080: 0806 a23d 27f9 6d3d 4507 0dbd 6195 e53d
00000090: 6ed8 b93d 3cb3 b1bc f83d dc3c f9d8 953c
000000a0: eac4 c43d e360 683d f5e7 71bd 723f 803d
000000b0: 8318 a13d cfde 9a3b f84c e03c 5bf0 3dbd
000000c0: bfe8 fd3b 339e d93d 73d3 8d3c b43a 8f3d
000000d0: a2fb f53c a227 053c 5309 ad3c 1fb4 45bd
000000e0: 94e0 643c 852d 19be 4559 703c dde1 913d
000000f0: 5e32 913d 7408 1a3e 4e2c 123e 87bc 813d
00000100: 249e ed3d 962a c5bc 97ea 643d 131e 9f3d
00000110: 4c68 a43d dc4d a83b baf1 523c c0fa 8ebc
00000120: 146a 023c 4341 1e3d 090a 98bc 2a01 c23d
00000130: df84 1e3c 6a78 b53d 5f21 c7bc 6376 d73c
00000140: 2310 6d3c fafe 05bb 1041 4cbc 193d 053d
00000150: 2c73 2e3d 3885 0ebd 8000 4c3d 110e 5e3c
00000160: 18db c4bc dc3c 133d 1843 22bd ebea fa3c
00000170: df70 4b3d dd0d 8d3d 2747 953d d52e bc3d
00000180: 852e 653d 09e4 f8ba d52f c23d e1bf 163d
00000190: 4fbe 153d c772 9fbd 2197 9bbd c7c1 053d
000001a0: 79bf b239 7bfa af3d 8237 38bd a4f8 8a3d
000001b0: 7f05 6a3c d080 a33d f2fb 5d3d 7f73 ffbc
000001c0: 7f04 1a3b e8a5 61bd 6731 a83d d447 80bc
000001d0: c5ae 833d ab4c 503d 20cd bf3d 0b94 0e3e
000001e0: 901d 4d3c 44ed 923d fe76 d33d 5416 5bbc
000001f0: 4e54 293d 4930 a73b d53c 163c bb1b 8d3d
00000200: abe4 c83d 67b9 32bd 18e3 003d 83cf 963c
00000210: 08b8 17be 7ba3 34bd dd96 a6bd 5703 abbb
00000220: 8d85 053c 94f5 0cbe e9ab c63d f442 e63d
00000230: 2b87 353d 64b2 403d 5bbc da3d 94ef 32bd
00000240: b409 10bc f076 d2ba 252c 443d 673e 923c
00000250: ee9b b13a f7c0 1cbd 074a 45bd 9ef5 54bd
00000260: 215e d6bc 0918 b03c 1aa0 5abd 58aa a43d
00000270: 7694 953d 7d5a 9b3d 464c 69bd be3e 01bd
00000280: 4167 c5bd 9622 233c 316c 1d3d 3bb3 e9bb
00000290: 4bd5 c7bc 79ed ef3d 6b61 543d 06f2 c33d
000002a0: 1d2e 7dbc 1410 d9bc b753 1dbd 7400 093d
000002b0: b006 4d3d d1c6 633d 814d fd3d 62f4 833c
000002c0: b00c a53d 824a 963c 5562 123c 940f 113e
000002d0: 5708 93bd 38f2 24be efa2 bf3c c38e 313d
000002e0: 8733 2fbc 96cb f23c e424 4b3d 40fb 823c
000002f0: 75b1 263d e23c c73d aff6 1f3c 6e63 903c
00000300: e3a0 69bd 7bb2 3abd 82c9 a63d 259b e3bc
00000310: 9d0c 97bc 4474 fa39 42e8 23bd e983 a53c
00000320: 7156 b2bc 61c5 b53d 91d1 b5bc 58ac 893d
00000330: 5839 7f3d 23f5 8e3d 61fa ee3d 842b 853d
00000340: 6b8c d93d b74a c23d 23a4 b53c 046b 4b3b
00000350: 63aa a13d 7e1c e4ba cdbe 603c 3d1d 953d
00000360: 16b3 473d 3674 2d3d da2c b43d 068e a2bc
00000370: aafc 1fbc ca0c a93d 7b6e 60bd 9ea0 af3d
00000380: 8b35 ab3d 780a 8e3d 4466 cb3d 743b 5a3d
00000390: b85e 2839 6cdc 7a3d 27d5 bd3c 7c95 613d
000003a0: 323f 703d 47b7 68b8 41e4 90bd 1305 303d
000003b0: ccf9 8e3d f89b 9a3d 89d4 4bbd 8f1d 853d
000003c0: 6c4e c2bc 5f47 233b f518 1a3d d3ed d6bc
000003d0: 3978 67bd 6ce7 0bbd 5151 0b3c e499 4cbb
000003e0: 42c4 953d 7661 523d 9343 683d 47a1 373d
000003f0: ab3a 483d 6e13 9f3c baf4 06bd 455e 47bd
0.022448227 -0.022685293 0.012490811 -0.054177154 0.10207959 0.09253509 0.037411265 0.0765627
0.033965923 0.10640707 0.016958265 0.065124 -0.025098588 0.045480072 -0.12875964 -0.04527249
0.14280722 -0.08407526 0.061961547 -0.050920084 0.00765135 0.07935768 0.015562628 -0.05525285
0.0061664744 0.07651166 0.08715846 0.02022867 -0.040123537 -0.015027697 0.030195463 -0.033994254
0.079113066 0.05809894 -0.03443076 0.112101324 0.09074484 -0.02169191 0.026885018 0.018291937
0.09607871 0.056733023 -0.059059102 0.06262101 0.07866003 0.004726268 0.027380452 -0.0463718
0.0077486928 0.10625877 0.01731274 0.069936186 0.030027214 0.008127125 0.02112261 -0.04826748
0.013969559 -0.1495877 0.014669721 0.07123158 0.07089685 0.15042287 0.14274713 0.06334787
0.116024286 -0.024068158 0.055887785 0.07769408 0.080277056 0.0051362347 0.012875015 -0.017453551
0.007959861 0.038636457 -0.018559473 0.09472878 0.009675234 0.08860858 -0.024307905 0.026301568
0.014469179 -0.0020446167 -0.012466684 0.03252897 0.042590305 -0.034795016 0.049805164 0.013553158
-0.024030253 0.035946712 -0.039614767 0.030629596 0.04966819 0.0688741 0.07288962 0.0918862
0.055952568 -0.0018988858 0.094817795 0.036804084 0.036558446 -0.07785564 -0.07597185 0.032655504
0.00034093464 0.08592697 -0.04497481 0.06785706 0.014283537 0.079835534 0.054195352 -0.031183003
0.0023501215 -0.05508986 0.08212548 -0.01565925 0.06429819 0.050854366 0.09365296 0.13923661
0.012519255 0.07174161 0.1032543 -0.013372023 0.041340165 0.0051021916 0.009169777 0.06890055
0.0980924 -0.043633845 0.031466573 0.018409496 -0.14816296 -0.04410122 -0.08134244 -0.005218904
0.008149517 -0.13765556 0.09700758 0.11243239 0.04431836 0.047045127 0.10680457 -0.04368551
-0.008791376 -0.0016057175 0.047893662 0.017852021 0.0013550499 -0.038269963 -0.0481663 -0.05199205
-0.026167931 0.021495836 -0.05337534 0.08040303 0.07303707 0.07585619 -0.056957506 -0.031553976
-0.09638835 0.009956976 0.038433257 -0.0071319616 -0.024393698 0.11715216 0.051850718 0.09567647
-0.015452889 -0.026496924 -0.038409915 0.033447698 0.050055206 0.055609528 0.12368298 0.016107742
0.080590606 0.018346075 0.008934577 0.14166099 -0.07179325 -0.16108024 0.023393122 0.04334904
-0.010693437 0.029638093 0.04959573 0.015988946 0.04069658 0.09728409 0.009763404 0.017625537
-0.0570382 -0.04558037 0.08143903 -0.02778394 -0.018438632 0.0004777034 -0.04001642 0.020204501
-0.021769734 0.08875538 -0.022194656 0.06722325 0.062310547 0.0698035 0.1166885 0.065024406
0.10622486 0.09486907 0.022172993 0.0031039128 0.07893827 -0.0017403511 0.013717365 0.072809674
0.048754774 0.042347156 0.08797617 -0.019843113 -0.00976483 0.082543924 -0.054792862 0.08575557
0.08359822 0.069355905 0.09931615 0.053279355 0.00016057014 0.061245367 0.023172928 0.0550742
0.058654018 -5.54838e-05 -0.07074786 0.04297359 0.06981239 0.0754928 -0.049763236 0.064997785
-0.023719035 0.0024914367 0.037621457 -0.02623645 -0.056511138 -0.034156248 0.008503274 -0.0031219656
0.07312824 0.051362477 0.05670507 0.04483154 0.048884075 0.019418444 -0.032948233 -0.048673887

regressor.weight f4 [7, 256]
00000000: 47ec bbbd c5b3 a03d dd9a b23c eec7 20be
00000010: 451d c1bd 0c71 a93c 06cb e4ba c66a 063d
00000020: 2e04 853d 46c3 543d 2089 08bc ba24 88bc
00000030: 4833 d13b 87e3 1d3c 5364 88bc 6e7d 32bd
00000040: d99d 1abd 08be 6abd 34e4 0e3d 6c07 a7bd
00000050: bcdf a4bc 8295 843d 6db6 5ebc d27b 8abc
00000060: 93dd 763d 671f b93c 1d9f 403d 95e2 113d
00000070: 8c0a d4bc 62d0 e03d 5269 003d f3f2 2c3d
00000080: 741b 8f3d 1975 1c3d f764 d6bc 2ab2 3bbd
00000090: bae4 8d3d 8e2c 813c 4f23 9e3c 19e5 3c3b
000000a0: f677 b7bc 5a2b 43bd 86a4 d23c 125c 873b
000000b0: fcbc 763c 601a f13c 5ea0 883d fa47 2fbd
000000c0: 22ef 803c 60ca 6d3d 2d81 dcbc 3110 95bd
000000d0: 6d8c 643d bad5 723c 1d05 f23c f915 143d
000000e0: b239 4bbb d53e 1e3e ef61 423d eee8 c63c
000000f0: 00a3 77bd 7aa8 4cbd 8fcc 52bd a444 a0bc
00000100: 8c5b 8d3d 4cda d93c e522 94bd be9a 2b3d
00000110: bcce 3bbd 17b7 893d 8550 81bc 1ef7 20bd
00000120: 1f76 8f3c 1025 a439 27ea 4ebd 8171 84bb
00000130: fbe1 6cbd e95a 18bd a264 50bd cb25 ad3c
00000140: c49f 11bd dc24 243b 5289 8cbd 651e dc3c
00000150: 13c0 77bc 2d33 c2bc a4f7 1dbd 99eb 903b
00000160: 58e9 d8bd 6fc4 7c3d 0193 c33c 278c 113d
00000170: 7531 203d 8123 bcbc 8cbe 0abd 6e62 aebd
00000180: ae55 51bd fd40 59bd cc74 833d e053 cabb
00000190: d3a9 483d 90f6 85bd 06dd 9cbd 08a3 6a3d
000001a0: 5c5d 0ebe be78 783b 420c aabc 1a78 f13d
000001b0: a408 c53c 2592 c43c 278d ae3c e5f9 3ebb
000001c0: 87a1 e93d 16fb 023d 95f1 eebc ab8e b3bd
000001d0: 131f 4d3d 4447 573d 0ad7 0e3d 88ef d2bd
000001e0: 25bc 543d de56 f5bc b41b a3bd 0e06 173d
000001f0: 24f3 0b3d f375 603d c3ba 06bd 4c70 323c
00000200: fc32 943d f0fe 43bd 18bf d23c 514c 5ebd
00000210: 8af8 adbd f348 5c3d e869 0abd 4771 a7bc
00000220: d95d 74bd f7a1 753d 8a37 493d 5e61 263d
00000230: 397c 5ebd 5b64 0d3e aee6 893d 2de6 9cb9
00000240: 4b7d c63c 0c30 aebc 94a2 50bd 26b4 293d
00000250: acf7 12bd a36e d63c 8028 fb3c 6ed9 f9bc
00000260: 5db4 99bc 5431 1a3d 6daa dbba 09e2 8dbd
00000270: 0ab2 66bd d599 a63c 33f9 e03c 32c0 1b3d
00000280: 5cf3 9cbd f579 0e3d f4a7 c0bc 4727 58bd
00000290: 1eb3 303d ccbd 3abd efe4 82bd d242 093e
000002a0: 7776 253d d5a8 63bd 0bce 313c 3715 90bc
000002b0: 8f80 003c 2ee3 213e 61ed 8cbd ce52 4c3c
000002c0: 3c0b 03bd 0a3f 893c 70d6 0b3d 6a4e 28bd
000002d0: a242 763d 7975 983d 927e 0abd e990 0e3e
000002e0: 034e cbbc 0f34 103c 2c57 5cbd dab0 0bbc
000002f0: 3afc 23bd d768 823d a056 d73b 276c a5bc
00000300: c24a 913b 7797 52bc d4ba c73d 826e 433c
00000310: 18de 163d 58fe ba3c b0e4 233d c3fb 133d
00000320: 3836 353c 1624 c13c 21b8 023c b55a 7d3d
00000330: 865a 52bd 2c33 883c 8881 d3bd 0214 6b3d
00000340: 0dbc 133d bcdd 38bd c11f 2cbd a2ec 86bc
00000350: 6a52 1b3c 35b5 b33c 6143 d13c 084d 43bc
00000360: 9964 dd3c fc51 e0bb c169 603d 0a30 4c3b
00000370: e2b1 033d 45f9 973d 5553 3f3d 1db6 0b3d
00000380: e580 1f3d 7d89 883d 14cf 6a3d 80ca 4e3d
00000390: 1c5c 8eba 7ef6 df3d 1484 47bd 0ab2 453d
000003a0: 1d78 a63c 83e3 98bc 8c79 ed3d 1da1 3a3d
000003b0: d8da 303d d15d 783c a550 a9bd cd78 d83c
000003c0: 0249 84ba bd2f 233d 80f5 d3bb 4fe3 f83c
000003d0: 8664 8dbc a41e 16bd 808e 1bbc c36e fc3c
000003e0: 763b c73c eea3 6a3d 3ef8 073d f62b b4bd
000003f0: d4c7 3b3b bc19 4f3c 3c13 cabc 167c 22bd
-0.09175926 0.07846788 0.02180236 -0.15701267 -0.09429411 0.020683788 -0.0017455525 0.03281667
0.06494938 0.05194404 -0.008333474 -0.016619075 0.006384287 0.009636766 -0.0166494 -0.04357665
-0.03774819 -0.057310134 0.0348856 -0.081557125 -0.020126216 0.06473829 -0.013593298 -0.016904745
0.060269903 0.022597982 0.047026742 0.035616476 -0.025883935 0.10977246 0.03135044 0.042223882
0.06987658 0.03819761 -0.02617119 -0.045824207 0.06928392 0.015768316 0.019303946 0.0028823076
-0.022396069 -0.047648765 0.025713217 0.0041308487 0.015059706 0.029431522 0.066712126 -0.04279325
0.015739027 0.058054328 -0.026917065 -0.07278479 0.055797983 0.014821464 0.029543454 0.036153767
-0.003100973 0.15453656 0.047456678 0.024280991 -0.060458183 -0.04996536 -0.051464614 -0.01956398
0.06902227 0.02659335 -0.07233218 0.04189562 -0.045851454 0.06724375 -0.015785465 -0.03929817
0.01751238 0.0003130813 -0.050516274 -0.004041851 -0.0578327 -0.037196074 -0.05087722 0.021136185
-0.035552755 0.0025046384 -0.06862129 0.026869962 -0.015121478 -0.023706043 -0.038566247 0.0044226167
-0.10591382 0.06171077 0.023873808 0.03553405 0.039109666 -0.022966148 -0.033873126 -0.08514868
-0.0511071 -0.053040493 0.064187616 -0.0061745495 0.048990082 -0.06541169 -0.076593444 0.057284385
-0.13902801 0.0037913765 -0.020757798 0.11790486 0.024051972 0.023995468 0.021307541 -0.0029140648
0.11407762 0.031977735 -0.02916793 -0.08767446 0.050078463 0.0525582 0.034873046 -0.10299593
0.05193724 -0.029948648 -0.07964268 0.03687101 0.034167424 0.054799985 -0.032892954 0.0108910315
0.07236287 -0.04785055 0.025725886 -0.054272 -0.08494671 0.053780507 -0.033792406 -0.020439757
-0.059659813 0.059968915 0.04912523 0.0406202 -0.054317687 0.13807814 0.06733452 -0.00029926133
0.024229666 -0.021263145 -0.050936297 0.04143157 -0.03588073 0.026175803 0.03065896 -0.030499186
-0.018762762 0.0376447 -0.0016759165 -0.069278784 -0.056322135 0.020337025 0.027462577 0.03802509
-0.076636046 0.034784276 -0.023517586 -0.052771833 0.04313957 -0.04559116 -0.06391322 0.13404396
0.04039618 -0.055580933 0.010852347 -0.017588241 0.007843151 0.15809318 -0.06881214 0.012470914
-0.031993136 0.016753692 0.03414005 -0.041090406 0.06012214 0.07444281 -0.033812113 0.13922466
-0.024817472 0.008801474 -0.05379407 -0.008526051 -0.040035464 0.06367653 0.006571606 -0.020193173
0.0044339607 -0.012853495 0.097524315 0.011928203 0.0368329 0.022826359 0.040013015 0.03612877
0.01106029 0.023576777 0.00797847 0.061854083 -0.05135586 0.016625963 -0.103274405 0.057392128
0.03606801 -0.045133337 -0.04202247 -0.016470257 0.009480098 0.021936992 0.025544824 -0.011920221
0.027025508 -0.006845711 0.054788355 0.0031156563 0.032152064 0.07420591 0.04671033 0.034109224
0.038941283 0.06666849 0.05732639 0.050486088 -0.0010861191 0.109356865 -0.048709944 0.048265494
0.020320946 -0.018663174 0.11595449 0.045563806 0.043177456 0.015159086 -0.08267335 0.02642479
-0.0010092559 0.03984045 -0.006468475 0.030381827 -0.017259847 -0.036650315 -0.009494424 0.030814534
0.024320345 0.05728524 0.033195727 -0.087974474 0.0028653042 0.012640413 -0.024667375 -0.03966912

regressor.bias f4 [7]
00000000: 0fd2 41bc 70be 10ba dc22 41bd 03cf 2fbd
00000010: 7290 e4bc c86b 5d3d f3c9 a23d
-0.011829867 -0.00055215415 -0.047152385 -0.04292203 -0.027900908 0.054057866 0.07948675
