src/cnn_emotion_regressor.pth (torch, 519464 bytes, 8 tensors)

encoder.0.weight f4 [64, 12, 5]
000000 d1 0e fe 3d 50 64 4c bc 03 d1 1f 3e 6c 1c 39 3d
       0.1240517 -0.012475088 0.15607075 0.04519312
000010 c2 a0 53 3e c8 00 af bd fe b0 6a bc 9f 46 cb bc
       0.20666793 -0.08545071 -0.014324425 -0.024813948
000020 d6 69 3c bd 77 0d dc 3d ad 53 79 3e 96 90 cc 3c
       -0.04599937 0.10744756 0.24348326 0.024971288
000030 dd 2b 53 3e d6 cc 69 3e 88 ef 9c 3d 59 67 18 3d
       0.20622201 0.22832045 0.076628745 0.037207935
000040 8a a5 96 bd 45 94 33 3d ed 27 1d be a4 c8 2f bc
       -0.07355793 0.043842573 -0.15347262 -0.010728989
000050 37 76 a3 bd ea 77 40 bd b9 57 e5 3d 3e ec a3 3c
       -0.07981532 -0.04698936 0.111983724 0.02001011
000060 2c e5 2d bd 36 b4 e7 ba 9a fc 4b bc 64 a9 12 be
       -0.042454883 -0.0017677608 -0.012450362 -0.1432243
000070 37 71 0e be 82 a7 f8 bd c1 70 3d bd ea d1 db 3d
       -0.13910376 -0.121413246 -0.04625011 0.10733397
000080 dd 4f 89 bb ce 65 d5 bd 87 0f 8f bd a6 fb d7 bd
       -0.0041904286 -0.10419808 -0.069853835 -0.10546045
000090 81 b7 39 bd 8e c1 32 bd c7 e1 42 bd 78 de 00 be
       -0.04534102 -0.04364162 -0.0475786 -0.12584865
0000a0 bb 4f 7c 3d b5 1a 14 3e c9 d7 b3 bb 4b 5a 73 3d
       0.061599474 0.14463313 -0.00548837 0.059412282
0000b0 7e 2c e8 3b e4 95 12 3c da 78 1b bd 25 0e 60 3d
       0.007085382 0.0089468695 -0.03795705 0.05470099
0000c0 9a d7 e5 3d 0f 13 90 3c e7 05 aa 3d c6 ce f3 3c
       0.11222763 0.017587213 0.08301907 0.029761683
0000d0 56 b9 31 3d 5c a9 0e bd 83 ae 86 bd 11 98 b1 3d
       0.04338964 -0.034829482 -0.06576254 0.086715825
0000e0 1f 34 8c 3d b6 42 8c bc b0 13 eb 3d 60 89 c6 3d
       0.06845879 -0.017121654 0.114783645 0.09694171
0000f0 61 a6 f7 3d 1b e5 0a 3d 58 2a 46 3e b2 22 e6 3b
       0.12092281 0.0339099 0.1935209 0.007023179
000100 76 f6 34 3e 44 6c ce bd 05 fc 6b 3c 21 b2 c5 3d
       0.17672142 -0.10079244 0.014403348 0.09653116
000110 0f d3 07 be 03 ff 99 3d 7d f7 08 bd 17 92 17 3e
       -0.13264106 0.07519343 -0.03343915 0.14801823
000120 a0 2e 18 3d 1f f9 33 3e d6 4c 44 3e c4 75 3c 3d
       0.03715384 0.17575501 0.19169936 0.046010748
000130 87 32 89 bd 6a 02 08 3d b2 c1 d0 bc 59 d9 42 3c
       -0.066990905 0.033205427 -0.025482986 0.01189264
000140 05 d2 d2 3d 36 a8 9f bd 39 49 95 bd 86 cf 0a 3e
       0.10293964 -0.077957556 -0.07289357 0.13555726
000150 46 26 46 3c c5 96 a5 3d 6a b6 fe bd c1 64 94 3d
       0.012094086 0.08085398 -0.124371365 0.0724578
000160 15 c2 9e bd 33 74 0e 3e 9b b1 9d bc ca 4b da 3c
       -0.07751862 0.13911514 -0.019249728 0.026647467
000170 bd a5 98 3d ba 91 11 3d 6e 22 87 3d 8f 1b 20 3e
       0.07453487 0.035539366 0.06598364 0.15635513
000180 47 82 51 3e 16 1d 82 3d 36 b4 f9 3d af b3 af 3d
       0.20459853 0.06353204 0.12192576 0.08579194
000190 0c 40 20 3e 06 d3 10 3d dc df 68 bd f0 cb 2d 3e
       0.15649432 0.035357498 -0.056854114 0.16972327
0001a0 04 4f 9e 3d 74 45 ee bd 11 2f ee bd 1b ef d2 bc
       0.07729915 -0.11634341 -0.11630071 -0.02574878
0001b0 3c cc f5 bc c4 3c 05 be 9e 8b 31 bd 41 eb 89 3c
       -0.030004613 -0.13011461 -0.04334604 0.01683581
0001c0 32 f6 1c 3d 72 c4 40 3d 16 05 51 bd 41 19 f0 bd
       0.038320728 0.047062345 -0.05103024 -0.11723567
0001d0 fd de c1 bc 42 ee a6 3c 6d 43 46 3c 13 ae c5 3c
       -0.0236659 0.020377282 0.0121010365 0.024130857
0001e0 ae d4 00 3e 72 01 37 3a f5 00 3b 3e a4 90 e0 3c
       0.12581131 0.00069811114 0.18262084 0.02741272
0001f0 07 ef 35 3e f3 dc 96 3c 70 65 a7 bd b0 10 31 bc
       0.17766963 0.018415904 -0.081736445 -0.010807201
000200 5c 6b cb bd 19 68 e6 3c 8d 5e fe 3d 13 82 82 3d
       -0.099325866 0.02812581 0.12420378 0.06372466
000210 ed 70 75 3e 96 0b 77 3e db f5 87 3d 21 9e 1d bd
       0.23968859 0.24125513 0.0663869 -0.03848088
000220 cc 01 0f be 44 2c 4e be b8 84 2e bc 44 48 e7 bd
       -0.13965529 -0.20134073 -0.01065176 -0.112930804
000230 c4 73 f4 3c 82 e5 c9 3d 1c 83 b0 bd 9f c8 e2 bd
       0.029840358 0.09858228 -0.08618757 -0.11073422
000240 36 e6 14 3d de 3a 5a be 67 ac b8 3d c4 70 9b bd
       0.03635236 -0.21311519 0.09017258 -0.07589868
000250 42 e7 6f 3d 8b d7 58 be cf e9 a9 bd a6 9a 58 bd
       0.058570154 -0.21175973 -0.082965486 -0.05288186
000260 ec 87 f7 bc d5 0e 38 bd 76 3f 74 bd 81 78 2b 3d
       -0.03021618 -0.04493602 -0.059630834 0.04186297
000270 1b a0 f7 3d 06 7f 3f 3d 88 6d 8f bd ea 56 09 bb
       0.120910846 0.046752 -0.07003313 -0.0020956346
000280 81 c0 b8 3d 0c fe c8 3c c9 c6 de bd f0 cd d3 3c
       0.09021092 0.024535201 -0.10877759 0.025855035
000290 a7 1c a0 bd 8c d2 75 3b 16 ba 24 3c 70 36 4b 3d
       -0.07817965 0.003750953 0.010054132 0.049612463
0002a0 17 6e e2 3d 89 1e 38 3c 95 51 ca bc b6 4a 3b 3e
       0.11056154 0.011237749 -0.024697104 0.18290219
0002b0 d8 83 19 3d a1 d5 9a 3c 22 68 d4 3d a4 c5 f0 3d
       0.03747925 0.018900694 0.10371424 0.11756447
0002c0 f8 09 82 3d c4 91 39 3d d4 97 85 3d 82 ba 96 3d
       0.06349558 0.04530503 0.065230995 0.07359792
0002d0 e9 76 d8 3b 14 9e ea bd f2 ef 8e bd 9b 94 ac bd
       0.006605972 -0.11455932 -0.0697936 -0.08426782
0002e0 f9 30 88 3d 51 40 2c bc a7 98 9d bc f3 e7 0d bc
       0.06649966 -0.010513381 -0.01923783 -0.008661258
0002f0 33 34 20 be 67 b3 83 bc d8 61 22 3d 03 9d 8b 3d
       -0.15644912 -0.016076757 0.039644092 0.06817057
000300 d2 72 b4 3c 1f dd 65 bc 64 bd c2 3d ef 7e bc bd
       0.022027407 -0.01402977 0.0950878 -0.09203898
000310 4d 41 93 b8 c4 d7 4f 3d ff 14 5e bd 26 47 14 be
       -7.0216694e-05 0.05074288 -0.054219242 -0.14480266
000320 ed 4b 4e bd e2 2a 3d 3c b5 63 7d bd 95 ba b4 3c
       -0.050365377 0.011545869 -0.061862666 0.022061625
000330 c4 05 83 bc b6 43 23 3d 4f b2 18 3d 17 5a cf bb
       -0.01599396 0.039859496 0.037279423 -0.006327878
000340 4b d6 28 3c 82 9e 13 bd 74 5c cd 3d 44 fb 53 bd
       0.010304998 -0.036039837 0.100274 -0.051753297
000350 a7 24 38 3d f1 f5 67 3d 59 d1 e1 3c 97 fe ec bb
       0.04495683 0.056631032 0.027565645 -0.007232498
000360 70 28 94 3d a8 e9 bc 3d 6b ef 96 3d ae 8a 5b 3d
       0.07234275 0.09224254 0.07369884 0.053599052
000370 99 7f 03 3e 61 49 c4 bd 50 75 1b 3e 40 64 8f bc
       0.12841643 -0.095843084 0.1518147 -0.017503858
000380 85 13 0b 3e 3f 56 cd 3d 02 29 16 3d d4 ff 63 3d
       0.13581665 0.10026216 0.0366602 0.0556639
000390 b1 81 df 3d 03 7d a3 3c 71 68 f5 bd dc d8 bf bd
       0.109134085 0.019957071 -0.11982811 -0.093675345
0003a0 38 13 30 be 0a 77 73 bc 26 77 cb bd 04 5c 72 bd
       -0.17194831 -0.014859924 -0.09934835 -0.059169784
0003b0 3a ef 66 bb 9c 3f dc 3d 9a 92 00 3e 64 9b de 3d
       -0.0035237805 0.1075432 0.12555924 0.10869482
0003c0 c8 a5 85 3d 4b a2 23 3e f5 b1 b8 3d a5 30 97 b9
       0.06525761 0.15979879 0.090183176 -0.00028837207
0003d0 9b de 07 3e 2d 57 58 3c 6a 34 97 bc a5 a5 b6 3d
       0.13268511 0.013204378 -0.01845761 0.08918313
0003e0 83 2d b3 bd 7e 49 c7 3c 20 d4 83 bd 9b af b2 3d
       -0.08748915 0.024327036 -0.06436944 0.087249
0003f0 4c 2a ad bd 97 69 b8 bd 83 52 ab bd 1c 8b 24 3e
       -0.08455333 -0.09004515 -0.08365347 0.16068691

encoder.0.bias f4 [64]
000000 9f a4 30 be ea 77 c4 bd e0 c6 6a 3d 18 9c 17 be
       -0.17250298 -0.09593184 0.05731857 -0.14805639
000010 ad 9c 3e bd f3 5e 5d be 2b 5d 2d 3d a1 dc ec bd
       -0.046536136 -0.21618252 0.04232518 -0.11565519
000020 4a 6a d3 bd bb 97 92 3d fd c2 08 be 3a 9c 75 be
       -0.103230074 0.071578465 -0.13355632 -0.23985377
000030 19 77 36 bb 4c 4e 44 be 9e 46 f0 3c 4a bd 65 be
       -0.0027841984 -0.19170493 0.029330548 -0.2243549
000040 f1 8f a5 3d 3b bc 7d be 12 f4 c1 3a 84 30 8f be
       0.08084095 -0.24778835 0.001479747 -0.27966702
000050 11 67 57 bd cb e6 18 bc 95 02 b8 bd 75 8e 12 3e
       -0.052588526 -0.009332369 -0.089848675 0.14312156
000060 34 ed 2a be 43 d0 37 be e8 72 8c be a2 9c 45 3e
       -0.16692048 -0.1795054 -0.27431417 0.19298032
000070 a1 60 a4 3d 89 b9 47 be d8 d8 6c be e8 e6 a7 be
       0.08026243 -0.1950437 -0.23129594 -0.32793355
000080 6f 95 04 bc 0e 38 36 be f3 37 2d be ac 01 f4 3b
       -0.008092268 -0.1779482 -0.16915874 0.0074464884
000090 e9 ca 08 be 8f 7a eb 3d e8 a7 48 be d5 c1 50 bd
       -0.13358654 0.114979856 -0.19595301 -0.050966103
0000a0 12 ae 38 3e b9 53 9b 3b 2e d8 c8 3c 02 af 07 3e
       0.18035153 0.004740205 0.024517145 0.13250354
0000b0 7a 0f a1 be 72 f7 a0 be 7c 39 85 be f5 93 8c 3d
       -0.3145712 -0.31438786 -0.2602042 0.06864158
0000c0 17 84 70 bd c6 cc 27 3e 15 05 34 be 46 d1 02 be
       -0.05871972 0.16386709 -0.17580064 -0.12775144
0000d0 de 77 1a 3d 88 24 31 be 5d 48 e7 bd 52 a8 53 be
       0.03771197 -0.17299092 -0.11293099 -0.20669678
0000e0 f2 14 2d be a5 79 e1 bd 59 b8 b8 3d 93 52 5c be
       -0.16902521 -0.1100953 0.090195365 -0.21515875
0000f0 85 a3 c4 bd 64 d2 c0 3c 9b 2a bc 3d c4 45 65 3e
       -0.096015014 0.023537822 0.09187814 0.22389895

encoder.3.weight f4 [128, 64, 3]
000000 7a 82 a0 bc 22 52 9e 3d be 71 85 3d 71 2e 7a 3d
       -0.019593466 0.07730509 0.06515835 0.061079446
000010 32 21 9b bc c1 98 46 bd bb 73 77 3d 77 5b cb 3a
       -0.018936727 -0.04848552 0.060413104 0.001551493
000020 82 f1 d9 3c 0a c9 9b bc b1 e2 2d bd f5 ce 58 bd
       0.026604418 -0.019016761 -0.042452518 -0.052931745
000030 23 0c 5d 3c 72 f1 87 bc 91 95 5a bc 83 a9 8b be
       0.013491663 -0.016594622 -0.0133413235 -0.27277765
000040 28 03 5f be 22 a0 58 be d0 3a a8 3c 83 62 1a bd
       -0.21778548 -0.21154836 0.020535856 -0.037691604
000050 6e aa 33 3d 97 ae 1d 3d 1e b3 a8 3b 13 97 68 3d
       0.043863706 0.03849658 0.0051483056 0.0567847
000060 cb f7 db bd 28 f2 2e be 1d 1c 21 be 96 f6 83 bd
       -0.10740622 -0.17084563 -0.1573338 -0.06443517
000070 29 83 9d bd 62 31 58 bc 98 fe 56 3c 9d c2 6b bd
       -0.076910324 -0.0131953675 0.013122223 -0.057558645
000080 51 d5 bc bc 6b fe a7 3c 74 b5 15 3d 1f 11 00 ba
       -0.023050936 0.020507058 0.03655 -0.0004885364
000090 11 25 5d bd a7 c6 69 bd 4f d2 0f be d5 e5 8c 3c
       -0.053990427 -0.057074215 -0.1404507 0.017199436
0000a0 6f aa 57 39 24 f9 38 3d c7 21 14 bd ae 10 af 3c
       0.00020567489 0.045159474 -0.036165025 0.021370258
0000b0 ac 16 52 bc bb 2d 43 3d 8c 0a 0d bc 70 db c4 bc
       -0.012822788 0.047651034 -0.008608472 -0.024030417
0000c0 a7 8c 32 3d a1 0a ad 3c 41 94 b8 3d ac b3 3d bc
       0.043591168 0.021123232 0.09012652 -0.011578482
0000d0 ce f0 f8 39 f6 f8 0e bc 3f 2e b4 bd f1 cb 91 bd
       0.0004748166 -0.008726349 -0.08797883 -0.07118977
0000e0 06 de 74 bc be 84 0f be 5e ca 6b bd 11 90 ab bd
       -0.014945513 -0.14015481 -0.05756604 -0.08377088
0000f0 a3 9d 6f bd e4 c4 a5 3c 04 a3 a8 bd 94 de c2 bd
       -0.058499943 0.020235486 -0.08234218 -0.0951511
000100 d8 c8 02 3d d2 1f 8f bd 07 39 1b be b4 c3 31 be
       0.03192982 -0.06988491 -0.15158473 -0.17359811
000110 eb 7e f4 bd cd d0 18 be f2 85 27 be ec 30 36 be
       -0.1193827 -0.14923401 -0.1635969 -0.177921
000120 3d c9 6f bc 92 18 df bd a1 35 6c bb 82 3f fe bc
       -0.014635381 -0.10893358 -0.0036042708 -0.031036142
000130 df a3 97 bd 27 5d dd bd 93 e1 cf bc 73 5d 7f bb
       -0.07404303 -0.10808783 -0.025376117 -0.0038965612
000140 83 9e 96 bb dc 05 12 be b8 4b fa bd b3 1c 9f bd
       -0.004596533 -0.14260048 -0.122214735 -0.07769146
000150 6b 1a e3 bd ea a5 a4 bd a7 fe 02 bd 6b bd 42 be
       -0.11089023 -0.08039458 -0.031981137 -0.1901757
000160 bf d1 33 be d6 43 e8 bd 1b 48 ce 3c 42 34 b6 bd
       -0.1756048 -0.11341064 0.025180867 -0.08896686
000170 38 3e 7f 3c b8 8c 24 bc 0c bf 78 bc c7 44 0e bd
       0.015578799 -0.010043316 -0.015182268 -0.03473356
000180 3d ea 67 bd ae 09 6e bd 0d 77 59 bd c8 04 cd bd
       -0.05661987 -0.0581147 -0.05309205 -0.100106776
000190 fe 1c 8a bd 8e 1d dc bd a5 ec 9b bd 6f 01 16 be
       -0.06743811 -0.107478246 -0.07613496 -0.14648984
0001a0 ac 02 e4 bd 6e b0 b5 3c ba 52 8f bd 67 d4 7c 3c
       -0.11133322 0.022178855 -0.06998201 0.0154315
0001b0 b6 c0 11 bc 4e 41 fc 3c 36 ec 50 bc 8b 91 84 bd
       -0.0088960435 0.030792858 -0.01275163 -0.064730726
0001c0 e5 9f e9 3c a4 ea 07 ba 39 63 f3 3a 27 ce bd bd
       0.028518626 -0.00051848055 0.0018568999 -0.09267836
0001d0 f3 b3 b4 bc cd dd 9c bc 29 5b 72 bd 8c 7c 2a 3d
       -0.022058463 -0.019148732 -0.05916897 0.041622683
0001e0 e4 37 01 bd be be da bd ab b3 69 bc b9 ab 05 bd
       -0.031547442 -0.106809124 -0.014264028 -0.03263447
0001f0 e7 fc 8f 3d 26 41 54 bc c3 b2 58 3b ee 54 3f 3d
       0.07030659 -0.012954986 0.0033065535 0.046711855
000200 73 c4 39 bd 85 85 65 be e8 ad 3c be c9 c9 41 be
       -0.045353364 -0.22414215 -0.18425715 -0.18924631
000210 37 49 11 be b4 f4 1f be 2c 6d e9 bd ec a2 00 bd
       -0.14188085 -0.1562069 -0.11397776 -0.031405374
000220 e3 2f a1 bd e8 14 50 3d fd 8a 2d be 00 da 99 bd
       -0.07870462 0.050801188 -0.16947551 -0.07512283
000230 b6 50 37 be fa 60 0a bd e5 ed fd bd 06 5f 83 bd
       -0.17901883 -0.03378389 -0.123988904 -0.06414609
000240 63 74 bd bc 4a f1 00 bd 11 25 2c 3d d7 79 73 bd
       -0.023126787 -0.03148011 0.042027537 -0.059442367
000250 01 87 9b 3b 97 8c 79 3d d1 29 48 bd 3f 61 4c bc
       0.0047463183 0.060925093 -0.048868004 -0.012474357
000260 74 b0 b7 bd df 79 d1 bc 34 5b dd bd 5c 6f db bd
       -0.08969203 -0.025570808 -0.10808411 -0.107145995
000270 84 73 29 b9 b4 85 65 bd 83 8b 3d bd 40 10 6e bd
       -0.00016160129 -0.056035712 -0.046275627 -0.058120966
000280 92 9b ec 3c a9 00 01 3b fd cf b6 bb e0 8f 06 ba
       0.028882775 0.0019684231 -0.0055789934 -0.00051331334
000290 3d 09 a1 bd 26 8e 09 be b0 7e 05 be fd 0e e5 bd
       -0.0786309 -0.13433132 -0.13036609 -0.111844994
0002a0 27 19 41 3c f9 b4 81 3c 81 0c 67 3d d3 91 26 bd
       0.011785782 0.015833365 0.05640841 -0.040666413
0002b0 6b eb 40 bd ac c6 17 3b b9 1b 48 3d bb a5 8a bc
       -0.047099512 0.002315919 0.048854563 -0.01692473
0002c0 de 08 de 39 e7 06 1a 3d 6a 9f f3 3c 38 49 8b bd
       0.00042349746 0.03760424 0.0297391 -0.06801075
0002d0 f5 e4 a1 3b f3 1d ba 3d e8 01 0c bd cd 94 33 3d
       0.004940624 0.090877436 -0.034181505 0.04384308
0002e0 34 30 38 bd a0 c1 30 bc 70 50 bd bd 07 9c 08 3d
       -0.044967845 -0.010788351 -0.09243858 0.033351924
0002f0 f9 38 38 3d 58 84 a0 bd 7c 4c fd 3c 69 0b 8d bc
       0.04497621 -0.078377426 0.03092026 -0.017217355
000300 7c 7b 73 3c c9 01 5d bd 26 c1 3d b9 85 52 34 3c
       0.014860984 -0.05395678 -0.00018096398 0.011006002
000310 d5 9b 27 bd ab 37 b7 bb 2a dc ea bc 81 92 bc bd
       -0.040920097 -0.005591353 -0.028669436 -0.09207631
000320 32 14 b4 3c 04 2c a3 bd db 10 92 bd e6 8e 9c bd
       0.021982286 -0.0796738 -0.07132121 -0.07644443
000330 a6 1d e7 3c a0 66 26 3d 07 be 99 bd 5b 64 86 3c
       0.02821238 0.040625215 -0.07506948 0.016405275
000340 c5 63 41 bd 5c 10 0f 3a bc 45 b3 3c 1e b5 24 3d
       -0.04721429 0.0005457455 0.021883838 0.04021179
000350 29 4b 72 3d 18 f9 9b bd 82 8c b5 3c d8 05 1e 3d
       0.05915371 -0.0761587 0.022161726 0.03857979
000360 14 a1 f6 b8 1b de 89 bc 42 d4 bc bd f1 d7 26 3d
       -0.00011760197 -0.016829541 -0.092201725 0.04073328
000370 f2 f5 80 bd 46 7d 5a bb ed d2 53 bd 87 7a 3e bd
       -0.0629691 -0.003333883 -0.051714826 -0.04650357
000380 a3 b8 b0 bd 52 af cb 3c da 16 3f 3d 98 4b 0e 3d
       -0.08628967 0.024863873 0.046652652 0.03474006
000390 6f 23 9f bd de 23 20 bd 14 22 5a 3c 0d 73 59 bd
       -0.0777043 -0.039096706 0.013313789 -0.053088237
0003a0 db 1c 9b bc 31 ce 4a bd c0 5d 12 3b 62 71 f8 3b
       -0.018934658 -0.049513046 0.0022333711 0.0075818757
0003b0 4d 24 b6 bd 94 c0 8b 3c 87 ef 0f 3d 66 13 4d 3d
       -0.088936426 0.017059602 0.03514054 0.050067328
0003c0 bf 34 3d bc 55 ea 09 3d 56 3a 7e 3c 04 b8 25 3d
       -0.01154822 0.033670742 0.015516838 0.040458694
0003d0 15 e8 cd bc a0 ee 84 bd 1f 34 7a bc 95 64 5e 3d
       -0.02513508 -0.064908266 -0.015271216 0.05429514
0003e0 b9 f4 46 bd 6c 65 cb bc 63 e5 46 bd 19 20 bd bd
       -0.04857323 -0.024828635 -0.048558604 -0.09234638
0003f0 35 dc a4 3c 75 f6 92 bb b1 20 b8 bd 52 c9 1f bd
       0.020124534 -0.0044849464 -0.089906104 -0.039010353

encoder.3.bias f4 [128]
000000 02 11 a8 3d c9 1c 80 bd c1 a4 ea 3d b7 59 f9 3c
       0.08206369 -0.0625549 0.114572056 0.030438287
000010 5f cb f2 3d ad 17 b7 ba e6 33 e8 bd bf 56 4c bc
       0.11855196 -0.0013968848 -0.11338024 -0.012471854
000020 72 61 5b 3e 6b 7f 9d bc 74 56 05 3d 71 75 4c 3d
       0.21423891 -0.019225797 0.03255315 0.04991669
000030 10 56 68 3b f3 5f 78 3a 12 5c 9f 3d ec e1 34 bd
       0.0035451688 0.0009474747 0.07781233 -0.04416077
000040 99 1d c6 bd 48 92 d6 bb 4e 2f 8f 3d 01 99 2b bb
       -0.09673614 -0.0065482 0.069914445 -0.0026183727
000050 8f b8 f7 bd ac 49 1f bd 01 dc e2 ba f3 8b 34 3c
       -0.12095749 -0.03888862 -0.0017307998 0.011019695
000060 17 78 14 3e 66 95 ec 3d 35 c8 c4 3d 96 04 a7 3d
       0.14498936 0.11551933 0.09608499 0.081551716
000070 18 c9 6b bd f5 a2 c6 bd a5 20 16 bd 54 c8 8e bd
       -0.057564825 -0.0969905 -0.036652226 -0.06971803
000080 c0 6e 52 3d e0 bf 5d 3d cc fb 24 bb 4b 53 b8 bd
       0.05137515 0.054138064 -0.0025174497 -0.09000262
000090 45 fd 8e 3d be da 8d 3c 46 d2 a3 bd 7a 86 08 be
       0.06981901 0.017316218 -0.07999091 -0.13332549
0000a0 58 bb 87 3d 7d 15 94 3d 58 97 85 bd dd f7 b9 bd
       0.0662753 0.07230661 -0.06523007 -0.09080479
0000b0 82 d2 71 bd 4f 02 a9 bd 10 e9 5f 3d 73 bc be 3c
       -0.059038647 -0.082523935 0.054665625 0.023283219
0000c0 59 14 06 bd 3b ea 82 3b cd e5 63 3c 88 c4 3a be
       -0.03273425 0.0039952076 0.013909769 -0.18239033
0000d0 2f fe 92 bd 95 44 29 bd 70 f1 50 3d 44 56 28 3d
       -0.07177388 -0.04132517 0.051011503 0.041097894
0000e0 2b 11 23 bd 75 76 bd bd 73 7c 09 3d fb 00 1b bd
       -0.039811295 -0.092511095 0.03356595 -0.037842732
0000f0 bf 45 57 3d 0e e4 e3 bc fc 99 8f 3d 29 bb 94 bd
       0.05255675 -0.027818706 0.07011792 -0.072622605
000100 87 21 bd bd 62 64 df bd 8d 39 56 3e 83 25 1f 3e
       -0.092349105 -0.109078184 0.20920391 0.15541653
000110 7f 9c 0c bd 9d fa a0 bd 25 2d 00 bd c8 fa 93 bd
       -0.034328934 -0.07860301 -0.031293053 -0.07225567
000120 1a 82 98 3d 13 1a 3c bd ef eb 25 3d c7 46 06 be
       0.0744669 -0.045923304 0.040508207 -0.13112937
000130 78 9f 7d 3b 9c cc bd 3d 19 15 dc bd 8f 94 61 bd
       0.0038699787 0.09267542 -0.107462116 -0.055073317
000140 b1 70 62 bd 48 50 41 3d 2c 9a 84 bd de 66 1e 3d
       -0.055283252 0.047195703 -0.064747185 0.03867232
000150 4b 20 d9 3a 9f aa 09 3e 0e ef 8c bd ba 8b b3 3d
       0.001656541 0.13443993 -0.068815336 0.08766885
000160 f5 ae 86 3d 5b ac a9 bd e1 d3 8e bd 68 76 11 3d
       0.06576339 -0.08284827 -0.069740064 0.03551331
000170 0e 68 dc bd ec 71 a8 bd c0 98 93 bc bb 39 68 3d
       -0.10762034 -0.08224854 -0.018017173 0.05669568
000180 68 b3 03 3d 56 7f 07 bd a4 37 00 3d 4b 99 1e bd
       0.032153517 -0.03308042 0.031303063 -0.03872041
000190 29 bc cc 3d 4d 68 84 3b 3b 4d ee 3d 93 ef 3e 3c
       0.09996826 0.004040754 0.11635824 0.011653799
0001a0 70 c8 5a 3d 28 3e d4 3c 3e 37 6b be 85 ce 14 3c
       0.05341381 0.025908545 -0.22970292 0.009082441
0001b0 3a fd 2c 3d 4d 9f 1c 3d 06 99 07 3d fd ef 24 bd
       0.042233683 0.03823786 0.03310492 -0.040267933
0001c0 9d 59 94 bb c8 8f aa 3d 5a 19 d9 3d 0e ed 66 bd
       -0.0045272843 0.08328205 0.106005386 -0.056378417
0001d0 52 fe 8c 3d 2e 07 34 3d 0e ad ae bd 50 65 b2 3d
       0.06884445 0.04395216 -0.08529101 0.0871073
0001e0 32 99 ac 3d d4 7b 49 be a8 8a ae 3d 32 f8 01 bd
       0.08427657 -0.19676143 0.0852254 -0.031730838
0001f0 b2 03 5b bd 7a 2c 02 bd e8 bf aa bc 18 58 62 3e
       -0.05347032 -0.031780697 -0.020843461 0.22103918

encoder.6.weight f4 [256, 128, 3]
000000 17 55 0d bc 28 fe 56 bd e3 45 21 bb 49 0c 50 bd
       -0.008626244 -0.052488476 -0.0024608306 -0.050792966
000010 55 7c 06 bb 9a ce 37 3d 9c ac f8 3c b8 72 1c bd
       -0.0020520885 0.044874765 0.030355744 -0.03819534
000020 bf 8f 0f 3d 00 71 36 bc a2 cb 00 bc 03 f9 ae bc
       0.035049196 -0.01113534 -0.00786105 -0.021358972
000030 1f ac 89 bd 26 96 28 bd d4 3e 0b bd 60 79 82 3d
       -0.067222826 -0.041158818 -0.033995464 0.06370807
000040 8a 76 0f bd cc 54 98 bc 7a 08 77 bd 90 7c 10 bd
       -0.035025157 -0.018595122 -0.06031082 -0.035275042
000050 8e 25 02 bd c1 fd 26 bd ea c5 b4 bc bd 04 82 bb
       -0.031774096 -0.040769342 -0.022067029 -0.00396785
000060 4b 39 9a bc 19 62 fe bc 0b b5 af bd 1c 78 e0 3c
       -0.018826148 -0.031052636 -0.08579453 0.027401023
000070 78 5a 25 3d c2 10 58 bd 8a 8e 26 3d 75 c9 46 3b
       0.04036948 -0.052750356 0.04066328 0.003033248
000080 96 9d bc 3c 7f 04 01 3d 1b e1 50 3b a4 82 86 bb
       0.023024362 0.03149843 0.0031872455 -0.004104929
000090 08 a0 39 bd 88 e8 18 bb 24 75 ed bc 35 2e 44 ba
       -0.045318633 -0.0023331959 -0.028986521 -0.0007483692
0000a0 27 ef 08 bd 47 5f 95 bc 13 56 62 bb 8b 86 cd bc
       -0.0334312 -0.018233908 -0.0034536168 -0.02508857
0000b0 14 48 f8 bc 61 2b b3 bc 46 18 03 bd 79 06 29 bc
       -0.030307807 -0.02187127 -0.03200557 -0.010316485
0000c0 14 51 14 3c a4 2d 78 3d ce 75 c7 3c 2d 80 c2 bc
       0.009052534 0.0605904 0.024348166 -0.02374276
0000d0 be 30 1a 3d 2c 89 03 3d 8a 24 84 bd 68 19 db 3c
       0.03764414 0.03211324 -0.06452282 0.026745513
0000e0 56 80 4b bd c5 e6 e9 ba 2b 88 b1 3c 58 ee b7 3c
       -0.049682938 -0.0017845264 0.021671375 0.022452518
0000f0 df cf 01 bd bd d2 a1 3b 0e 1e 16 bd 44 17 8d bc
       -0.031692382 0.004938452 -0.036649756 -0.017223008
000100 aa ea d5 3c 23 2a 11 bc 7f 80 23 3d 5d 14 c2 3b
       0.026112873 -0.008860144 0.039917465 0.0059228376
000110 ab 66 cf 3c 88 01 9a bc 36 f0 13 3d e7 4d 1a bd
       0.02531751 -0.018799558 0.036117755 -0.03767195
000120 d8 b9 5e bd e7 45 d4 3c 23 ed 1c 3c 64 58 65 bc
       -0.054376453 0.025912238 0.009578022 -0.013998125
000130 8a 6a 2f bd ab f0 81 bd a7 5c 63 bd 22 ca ec bb
       -0.042826213 -0.06344732 -0.055508282 -0.0072262445
000140 b9 8b 31 bd 68 00 bf bc 5f 2e fe 3c 8d 02 18 bd
       -0.04334614 -0.023315623 0.03102797 -0.037111808
000150 8d a7 18 bd ec 61 9d bc 27 e3 32 3d 5f 1d aa 3d
       -0.037269164 -0.019211732 0.04367366 0.08306383
000160 5b 56 2e 3c 97 f2 22 ba 57 ac 94 3d 89 d4 43 3d
       0.010640706 -0.0006215958 0.07259434 0.04781011
000170 25 66 71 3c bb e9 61 bd 84 d2 75 bd 31 77 a0 3b
       0.014733826 -0.055154543 -0.060015216 0.004897021
000180 38 3b 34 bd f5 ac 90 bd b5 17 a6 bc 1f 5b ed bc
       -0.044001788 -0.07064239 -0.020274976 -0.028974114
000190 c8 99 97 3c ca 16 18 3d 75 09 17 3b 84 4d d3 bc
       0.018505946 0.03713111 0.0023046408 -0.025793798
0001a0 23 2a 32 bd c2 cf a1 3b 3c 3e 97 bc bc 61 55 3d
       -0.043497216 0.0049380967 -0.018462293 0.05209516
0001b0 0d b1 18 3b 40 45 1a bd 39 48 38 3d 27 2c 85 bd
       0.002329889 -0.0376637 0.044990752 -0.06502562
0001c0 56 22 86 3a b2 a1 34 3c 3f c4 19 3d 8a 86 1c 3d
       0.0010233622 0.011024879 0.03754067 0.038214244
0001d0 9e 83 46 bc a8 4b 33 bc 78 1e e5 bc 1f 37 ce 3c
       -0.012116341 -0.010943331 -0.02796863 0.025172768
0001e0 fa c5 63 3a 1d dc f6 bc 4a 6d 9f 3b 94 c1 e5 bc
       0.00086888636 -0.030134255 0.004865323 -0.028046407
0001f0 55 5e 14 bc 44 da f2 bc 31 1e a6 bb fd 18 1a 3d
       -0.009055694 -0.029645093 -0.005069517 0.037621487
000200 eb c5 55 3c c2 88 3c bd 6e 8a 2c ba 15 33 48 bb
       0.013047676 -0.04602886 -0.0006581907 -0.0030548025
000210 f3 8e 35 3d 51 6a 07 3c 4d 7d ae 3c 1a 38 05 bd
       0.04432578 0.008265094 0.021299982 -0.032524206
000220 12 5e 45 bd 1b 3d 36 3c c8 ae 5e 3c 36 17 16 3c
       -0.048185416 0.011122967 0.013591476 0.009160807
000230 a8 04 19 3d b3 4f 87 3a 6f 95 b2 3c e3 d5 2d bd
       0.037357956 0.0010323435 0.021799771 -0.042440306
000240 aa 4e 03 3d 8a 53 91 bb 28 bf 9e bc 2f 41 10 bd
       0.03205744 -0.0044350075 -0.01937826 -0.035218414
000250 6e 69 42 bd e4 69 34 bd bf ad cf 3c 60 dd 03 3d
       -0.047463827 -0.044046298 0.025351403 0.03219354
000260 c3 36 54 3c 76 3a 9b bd 84 e7 b0 bd 80 10 0e bd
       0.012952509 -0.0757951 -0.08637908 -0.034683704
000270 00 f4 52 bc 9e d9 18 bd 3b 98 b4 3c 88 ed c2 bc
       -0.012875557 -0.03731691 0.022045245 -0.023794904
000280 ad d7 5e 3d a2 de ad bc 48 83 aa 3c c6 2d 3a bd
       0.054404903 -0.021224324 0.020814553 -0.04545381
000290 68 90 0f 3b e2 8f 03 3d fc b0 1e 3c e3 c4 93 3b
       0.0021906141 0.03211964 0.009685751 0.0045095547
0002a0 ee c3 89 bb a4 43 a6 ba c7 9c 8a bc c9 a3 06 bd
       -0.004204265 -0.0012684953 -0.01692046 -0.03287104
0002b0 67 7f 29 bd b2 3f 8a bb 9c dd 16 bd 6e 0c c6 bb
       -0.041381266 -0.004219019 -0.036832437 -0.006043962
0002c0 30 b3 89 bd 92 f5 90 bb e8 8a 3c 3d d8 56 11 3d
       -0.067236304 -0.0044238055 0.04603091 0.03548321
0002d0 28 f1 a0 bc 7f f2 a8 3c 41 d7 f6 3b 0b f2 49 bd
       -0.019646242 0.020623444 0.0075329845 -0.049303096
0002e0 9d a4 34 bc 4f 78 6f bd 6a d4 2d bc 48 72 b1 bc
       -0.011025575 -0.058464345 -0.0106097255 -0.021660939
0002f0 0a de c9 3c e1 29 bc 3b 46 3a 0d 3d e8 bf 0c 3b
       0.02464201 0.005742297 0.034479402 0.002147669
000300 32 b5 c2 bc 05 4b da 3c 85 7d 3a 3c 73 9c be bd
       -0.023768041 0.0266471 0.011382465 -0.09307184
000310 49 6b 74 bb d3 46 a1 bd 35 f5 6d bd 20 95 60 bd
       -0.0037295392 -0.07874837 -0.058095176 -0.054829717
000320 cb 09 8b bd 34 95 ce bd 43 ab b2 bd 64 52 a7 bd
       -0.06788977 -0.10087052 -0.08724072 -0.08170012
000330 a1 0b 82 bc f4 2c 29 3b 8f ae 11 3d 8b 2e cc 3c
       -0.015874686 0.0025814148 0.035566863 0.024924537
000340 1a 18 77 3a ca 1b 65 3c df ed af bd a7 86 08 be
       0.00094258937 0.013983676 -0.08590292 -0.13332616
000350 5f 69 da bd 17 67 96 bd 6e a3 3b 3d a1 32 dd 3b
       -0.10664629 -0.073438816 0.045810156 0.00675042
000360 36 75 e0 3c e3 9f 27 bd b8 57 65 3d 88 16 66 3d
       0.02739964 -0.040923964 0.05599186 0.05617383
000370 2e a5 7b bc 31 a4 0d bd 69 ec eb 3c ca 57 12 3c
       -0.015359206 -0.034580413 0.028799253 0.008932063
000380 c1 40 b7 bc 01 cc fe 3c df 3e 19 bd 7b 61 0c 3d
       -0.022369744 0.031103136 -0.037413474 0.034272652
000390 56 a2 b3 bd 95 ea 8f bd cb 77 d5 bd 43 d7 8f ba
       -0.087711975 -0.07027165 -0.10423239 -0.0010974187
0003a0 fa 83 13 3d d5 12 0a 3d 96 bf d7 3c 21 81 47 bc
       0.036014535 0.033709366 0.026336472 -0.012176783
0003b0 56 0a 12 bd 55 6d c5 bd e2 4f f2 bc 5b 57 f6 bc
       -0.03565439 -0.09639994 -0.029579107 -0.030070951
0003c0 f1 41 32 3c b1 92 1e bd 4f 7a 36 3d f6 49 b1 bd
       0.0108799795 -0.038714115 0.044550236 -0.08656685
0003d0 19 55 03 bd db 5a aa bd d0 bb 8a 3c 7f e6 f3 bc
       -0.032063577 -0.083181106 0.01693526 -0.029772995
0003e0 4d a6 be 3c 2f 5d 2a bd 59 f6 1e bd 89 9b 0e bc
       0.023272658 -0.041592773 -0.038809154 -0.008704075
0003f0 53 68 1a 3d 9d 95 b4 3b 44 8b f5 bb 6f bb 06 3d
       0.037697148 0.0055109994 -0.0074934084 0.032893594

encoder.6.bias f4 [256]
000000 1f 63 27 3d 81 85 22 be f7 59 b5 3d e4 3a 15 3d
       0.040866014 -0.1587124 0.0885505 0.036433116
000010 91 8e 80 bd cb b0 1b 3e 86 28 97 bd c7 6b 5b 3d
       -0.062771924 0.1520416 -0.07380776 0.05356958
000020 f9 6c 4d 3d 4a 95 1b bd f8 fe e5 3c 40 9d 05 3d
       0.050152753 -0.03798417 0.02807568 0.03262067
000030 45 76 dd 3d 98 a6 82 bd 67 f1 b2 3c 2b d9 d7 3d
       0.10813574 -0.063794315 0.021843625 0.105394684
000040 fe 02 d6 bc 0e 5e e2 3d da ad 3e bd 6f d2 eb 3d
       -0.026124474 0.11053096 -0.046552517 0.115147464
000050 98 c7 3a bd 67 2a 0a 3e 8c 87 5d bc 17 17 35 bc
       -0.045600504 0.13492738 -0.013521086 -0.011052868
000060 55 6e 10 3e 6d 0b 0a 3d 3c c9 99 bd f3 2c 69 bc
       0.14104588 0.033702303 -0.075090855 -0.014231908
000070 83 27 67 bc 0b 69 8f bc 28 ec bf bc fe cc 65 3b
       -0.014108541 -0.017506143 -0.023428038 0.0035064812
000080 02 b6 0b 3e d9 65 aa bd dd 27 05 bd 82 b5 a9 bd
       0.13643649 -0.08320207 -0.03250872 -0.08286573
000090 0f 61 01 3d c7 ee 86 3d 0b 56 89 bd 21 15 c6 bc
       0.031586703 0.06588512 -0.067058645 -0.024179997
0000a0 36 2e 20 be a3 f5 44 bc 11 34 10 3e d3 20 b4 3d
       -0.15642628 -0.012021455 0.14082362 0.08795323
0000b0 bc f1 54 3c 26 7e 81 bd ea 82 8e bd ca d0 68 bd
       0.012997087 -0.06322889 -0.069585636 -0.05683974
0000c0 af 12 03 3c 26 55 b3 bd fe 6d 70 bd 84 c5 99 3d
       0.00800006 -0.08756475 -0.058698647 0.07508376
0000d0 d5 a9 f6 3c 95 6a 9d 3d c9 51 37 bd 45 26 9c 3d
       0.03011028 0.076863445 -0.04475573 0.07624487
0000e0 eb ea 71 3c df f4 46 3d 98 dd 25 be c4 be e4 bd
       0.014765481 0.04857337 -0.16197813 -0.11169198
0000f0 40 23 8a be 84 a9 35 bd 2f 16 07 be fd 68 12 bb
       -0.2698002 -0.044351116 -0.13192056 -0.002234041
000100 81 b6 02 3e db bb a8 3d 39 0c 8b bd e2 4f a3 3d
       0.12764932 0.082389556 -0.06789441 0.07974221
000110 24 56 5e 3d f1 e8 67 bd b1 e5 60 3d b6 60 ca bd
       0.05428137 -0.056618635 0.05490655 -0.098817274
000120 9b 7e 52 bd a1 b8 92 bd f1 62 d6 3d 6d 3d 65 bd
       -0.05139027 -0.071641214 0.1046809 -0.055966783
000130 06 c3 08 3d 03 8e 9f bd 7f 37 69 3d 8b 57 e1 3d
       0.033389114 -0.077907585 0.05693769 0.110030256
000140 15 bf fc 3d 9b dc b8 bd a1 85 d5 3d a1 24 2e be
       0.123411335 -0.09026452 0.10425878 -0.1700616
000150 b4 99 27 3e 08 d4 e5 bd 12 3a 08 3e ce a6 a1 bd
       0.16367227 -0.112220824 0.13303402 -0.078931436
000160 06 54 ce bc 5a 62 1e 3c 6b 91 97 3d 2b 1a b0 bd
       -0.02518655 0.0096670035 0.07400783 -0.08598741
000170 a4 09 dd 3d 13 79 26 3e 9d 74 3c 3c 22 ac 8f 3d
       0.107928544 0.16257124 0.011502412 0.070152536
000180 20 2b 6a bd 60 c0 28 bc 49 fb af 3d 22 b6 ac bd
       -0.057170033 -0.010299772 0.08592851 -0.084331766
000190 e6 ef 41 bc db 69 11 bb 4b ec 03 3e 93 41 83 bd
       -0.011836981 -0.002218834 0.12883107 -0.06408992
0001a0 24 60 da bc e0 fc 25 3e bd 4e 56 bd 03 ba 77 bd
       -0.026657172 0.16209745 -0.052321184 -0.06048013
0001b0 5d a5 bb 3d ea e8 23 3e 51 15 75 3e e7 29 3c bd
       0.091624 0.16006818 0.23933913 -0.0459384
0001c0 06 1f 25 3e 78 2d 47 3c 6a c1 ff 3d 51 60 ac 3d
       0.16125116 0.012156837 0.12488063 0.084168084
0001d0 06 4c 26 ba b1 41 82 bd b2 b3 e6 3d 6a ab a4 bc
       -0.0006343726 -0.06360186 0.11264743 -0.020101268
0001e0 08 74 19 be 72 0d ca bd 95 c4 86 bd e2 30 a7 3d
       -0.14985669 -0.09865846 -0.06580464 0.081636205
0001f0 cd a9 15 bd fb 69 3e 3e d1 b3 a7 bd af 22 23 3e
       -0.036538888 0.18595116 -0.08188594 0.159312
000200 73 76 85 bd 11 ba d3 bd 26 0d 35 3e 4b 01 82 bd
       -0.06516733 -0.10338224 0.17680797 -0.06347903
000210 7b ff 2a 3e 91 2c 75 3d 68 72 06 3e c2 db ff 3d
       0.1669902 0.059856955 0.1312958 0.12493087
000220 59 76 b2 3d 1b 6b 94 3d c6 db 07 3e c4 50 22 bd
       0.08713979 0.07246991 0.1326743 -0.039627805
000230 1c 27 69 bd 90 92 29 bc 7f f1 92 3c 5a 6c f7 bd
       -0.056922063 -0.010349885 0.01793742 -0.12081213
000240 c6 f1 07 be 3e 44 cd 3d 29 4f ed bd 43 63 16 3d
       -0.13275823 0.10022782 -0.11587364 0.036715757
000250 33 b4 e5 3d a7 07 76 bd 77 ad 24 bd ac 5d 19 3d
       0.11216011 -0.06006589 -0.04020449 0.037442848
000260 a6 7b ca bc 01 4d 86 3d 71 e2 47 be 9f 13 dd 3d
       -0.024717163 0.06557656 -0.19519974 0.10794758
000270 cd 35 39 be f4 f0 c1 bd 0f 32 07 3e 22 6e 45 bc
       -0.1808693 -0.09469786 0.1320269 -0.0120501835
000280 17 45 02 be 74 ce 15 3e ec c1 b4 bd f8 f9 be 3d
       -0.12721668 0.14629537 -0.0882605 0.093250215
000290 37 ac 27 3e 62 de 4d 3d 6d 5d 58 3d e5 71 7e 3c
       0.16374288 0.05026091 0.052823473 0.015530084
0002a0 3c 61 12 3b 1e ff 23 3e b8 d4 1a 3e f1 9d 2b bd
       0.0022335788 0.16015288 0.15120208 -0.04189867
0002b0 fc 75 a5 3d e6 17 1a bd 47 e1 29 3e 64 03 f7 3d
       0.08079144 -0.037620448 0.16589843 0.120611936
0002c0 b4 ba b2 3d 34 7e 1b bd 01 67 d8 3d 4b 86 f2 bd
       0.08727017 -0.037962154 0.105665214 -0.118420206
0002d0 bb 13 da bd 0f 39 25 3d 18 5b 97 3b 5d 54 a1 bd
       -0.106482945 0.04033762 0.0046190135 -0.07877419
0002e0 09 e3 15 bd 66 e3 69 3d d4 2f 4a bd bc 57 ec bc
       -0.03659347 0.05710163 -0.04936202 -0.028850429
0002f0 61 69 06 3e fb df d0 3d 52 08 8e bd 56 03 c2 3d
       0.13126136 0.10198971 -0.06935181 0.094732925
000300 da c5 98 3d a1 cc 93 bd 6f 18 06 bd b4 64 e1 3d
       0.07459612 -0.07216764 -0.032738145 0.11005536
000310 b7 51 ff 3c 5f 6d 8f bd 59 5f 17 3c 73 7b 2f bd
       0.031166894 -0.07003283 0.009239041 -0.04284234
000320 28 c3 0e bd e6 89 bd bd a9 d9 62 bd 8f 8a c7 3d
       -0.034854084 -0.09254818 -0.05538336 0.09743225
000330 e3 e0 d4 bd 73 b9 d8 3d 76 3b fb 3d a0 0a 73 bd
       -0.10394456 0.10582247 0.12267201 -0.059336305
000340 88 f7 4c bc ac 47 35 bb 27 05 31 3e 7a 01 3a 3d
       -0.012510188 -0.0027661128 0.17287122 0.045411564
000350 1a 3c 99 3d c6 2d 74 3c 0b a1 8c bd 67 ea 2f bd
       0.074821666 0.014903491 -0.06866654 -0.042948153
000360 a9 ee 3c bd db 31 85 bd 93 f8 35 3d 6d 05 a7 bd
       -0.04612604 -0.0650365 0.044426512 -0.08155332
000370 1f 9f 17 3e 81 b0 3d bd 88 91 2b be af 3f 88 bb
       0.14806794 -0.046310905 -0.16754735 -0.0041579823
000380 ee 19 46 bd 09 f5 94 bd c6 5f c4 bd 43 61 45 bd
       -0.048364572 -0.07273299 -0.0958858 -0.04818846
000390 c7 86 3d bd 89 d5 b7 bd 04 b5 f6 3d ca 7c 36 bd
       -0.04627111 -0.089762755 0.12046245 -0.044552602
0003a0 7a 80 6e 3c 9b 1e f8 3d a9 a8 c0 bd 36 84 47 3d
       0.014556998 0.121152125 -0.09407169 0.04871007
0003b0 19 19 0a 3e 41 94 13 3e 8f a1 91 3d 4b 49 d3 bc
       0.13486136 0.14412023 0.07110893 -0.025791785
0003c0 0b 24 d6 3d 05 8d a0 bd 50 81 33 bd 0f d7 96 3c
       0.104560934 -0.07839397 -0.043824494 0.018413095
0003d0 1b a0 93 3c b0 5f c2 3d fc f9 89 3d 37 2e 8a bd
       0.01802068 0.09490907 0.06737134 -0.06747096
0003e0 ac 80 fe 3d 7f 2a 14 be e1 95 11 bd c8 5e 09 be
       0.12426886 -0.14469336 -0.035543326 -0.13415062
0003f0 63 ba 9e 3c 78 a7 5f bd 4b ed 86 3d 62 3e b7 3d
       0.019375985 -0.05460307 0.06588229 0.089474455

regressor.weight f4 [7, 256]
000000 08 f0 03 3c 2a ea a6 bd 3a 15 0b bd db 63 9f bc
       0.008052833 -0.08150132 -0.03395579 -0.019456794
000010 3f d1 a6 bc 37 14 c5 bc b6 52 46 ba 65 14 33 3d
       -0.020363448 -0.02405749 -0.00075654255 0.04372062
000020 16 c2 e7 bc d6 29 af 3c ef b7 9d bc 94 51 27 bd
       -0.02829079 0.021382254 -0.019252745 -0.040849283
000030 25 1a 8e 3d b7 62 8b 3c de 1e 59 bd a8 15 b8 bd
       0.069385804 0.017014844 -0.053007953 -0.089885056
000040 f4 c4 81 bb ac 25 25 bb 0b c9 9d 3d 8b 71 4f bd
       -0.003960246 -0.0025199456 0.077043615 -0.050645392
000050 35 b6 1d bd 94 88 88 3e 29 fc b2 bb 62 0a 25 3c
       -0.038503844 0.266667 -0.0054621887 0.010073276
000060 e6 59 a8 bb 0c 94 c3 3c 27 2e b7 3d c1 8d 14 3d
       -0.00513767 0.023874305 0.0894435 0.036268
000070 86 c6 54 3d bd be fa bb 9d a4 5c bb c4 b7 7f bc
       0.05194714 -0.0076521323 -0.0033667453 -0.015607778
000080 db 4f 5a 3b cd 63 9c 3d 57 f5 1c bd f8 f5 3c bd
       0.0033311758 0.07636223 -0.03831991 -0.04613301
000090 ee 2e 35 bd 09 1f e6 bc 8d ed 43 bc 99 fa d1 bc
       -0.04423421 -0.02809097 -0.011958492 -0.02563219
0000a0 b8 6b 6e 3c e8 18 a6 3b 55 ac 8a bd 78 05 97 3a
       0.014552049 0.005068887 -0.06771151 0.0011522016
0000b0 74 2e 97 bc fb d3 ed 3b 9c 1c da 3c 00 de bb 3d
       -0.018454768 0.007257936 0.02662497 0.091732025
0000c0 c2 91 5d bc 3e b6 09 3c f7 84 ce 3c 8c 11 14 bd
       -0.013523521 0.008405266 0.025209887 -0.036149547
0000d0 24 2e 8c 3c 97 79 7f 3b 4a 0f ee bc 27 40 a1 3d
       0.017111845 0.0038982385 -0.029060025 0.07873564
0000e0 20 24 d3 3d 8c d7 86 bd 3c e9 60 bc 9a c2 28 bd
       0.10309625 -0.06584081 -0.013727482 -0.04120121
0000f0 2f 16 57 3e 9f 76 f2 bd 09 e6 cf bd 37 b3 4e 3d
       0.21004556 -0.118390314 -0.101512976 0.05046388
000100 31 5c 36 bd 14 72 fb 3c a7 c3 b5 bc 9d fb 4d 3c
       -0.044521514 0.030694045 -0.02218802 0.012572196
000110 d8 0d 92 bd 3f b8 3d bd bb 03 be 3b b8 f9 0c bd
       -0.07131547 -0.04631829 0.0057987846 -0.034417838
000120 6e 03 e8 3b 1f 2e 4c 3c 4b d5 68 bc 1c 5d 94 bb
       0.007080487 0.012462168 -0.014211009 -0.004527701
000130 e0 e4 bb 3c ca 44 15 bc f2 f6 e0 bc e6 a7 d6 bc
       0.022936285 -0.009110639 -0.027461503 -0.026203107
000140 9c 9d 73 bd e2 27 65 3d 0b b4 47 be da 51 9c bd
       -0.05947648 0.05594624 -0.19502275 -0.076327994
000150 aa b1 23 bd 34 b0 4c bd 5c 57 a2 3c 89 10 2f 3c
       -0.039964356 -0.049972728 0.019817047 0.010685095
000160 30 70 a4 3d 22 88 89 bc 44 ce 14 3d 3f 79 bb bc
       0.080292106 -0.016788546 0.036329523 -0.022884963
000170 0c 93 a3 bc 8f 5d a1 bc 4b 1a 6a 3d a8 e9 79 3d
       -0.019967578 -0.019697933 0.05715398 0.061013848
000180 10 e8 b1 3c 65 3b 38 3b 8b 54 ce bc e9 6c ad bc
       0.021717101 0.0028111574 -0.025186798 -0.021170096
000190 3c 44 ef 3b 98 c3 47 3d 6a 88 d2 bd 8b 3b 7c 3c
       0.0073018353 0.048770517 -0.10279925 0.0153950555
0001a0 8a f7 dd 3c 0b 59 b0 3c 13 39 b4 bc 70 3c 8f 3d
       0.027095575 0.021526834 -0.021999871 0.069939494
0001b0 04 a9 1c 3c c1 51 3d 3d 5c f1 02 bd d7 d5 ab 3b
       0.009561781 0.046220545 -0.03196846 0.0052439976
0001c0 32 27 87 bd 9b 22 70 3c 02 6d b7 3c 06 23 53 be
       -0.06599273 0.014656688 0.022390846 -0.20618829
0001d0 e0 c3 b3 bc 86 b9 ad bd 7e 59 92 bd ce be 10 bd
       -0.021943986 -0.084826514 -0.071459755 -0.035338216
0001e0 57 97 d4 3c 30 e7 63 3d 28 5f 92 3d 3c ee 44 be
       0.02595107 0.0556404 0.07147056 -0.19231504
0001f0 e5 c5 5e bb 36 cc 40 bb a4 c8 8f 3d 56 1e b3 bd
       -0.0033992466 -0.0029418594 0.07020691 -0.087460205
000200 82 70 34 3c c9 7f f8 ba bd 93 01 3d ac b1 47 3d
       0.011013152 -0.0018958981 0.031635035 0.048753425
000210 0d 0d 15 bc 55 3f 9c bd 80 df c3 bc df b3 8b 3b
       -0.00909735 -0.07629267 -0.023910284 0.0042633857
000220 0e 0d aa 38 cc c0 0f bc 17 a0 b5 bc df 0e 67 bd
       8.108663e-05 -0.008773994 -0.022171063 -0.056410667
000230 ad 9c 60 3c 72 60 4b 3d 97 ae e7 bb d1 34 8f 3c
       0.013709229 0.049652524 -0.0070703733 0.01748124
000240 54 2b be 3c 0f da da bd bf c5 b8 bc f5 6f 00 3d
       0.02321402 -0.106861226 -0.02255523 0.03135677
000250 29 db 96 bd 9a 2a a5 bb d0 f1 82 bb 13 bc ed bb
       -0.0736602 -0.005040479 -0.0039961115 -0.007255086
000260 01 f5 4a bd 32 11 99 3c 02 e5 fb bd e6 2c c5 3b
       -0.04955006 0.018684957 -0.12299539 0.006017315
000270 32 ef 3c 3a ad 42 66 3e 06 92 b0 bd b8 b5 df 3a
       0.0007207274 0.22486372 -0.08621602 0.0017067706
000280 3d df 13 3c ec c1 80 3b b4 63 6b bb 54 fe d4 3c
       0.009025392 0.0039293673 -0.0035917582 0.02600018
000290 a0 95 e2 bd d1 c7 33 bd f4 f5 35 bd 7c 97 19 3d
       -0.11063695 -0.04389173 -0.044424012 0.037497982
0002a0 35 c9 17 be 2f a4 b4 bb 42 af dd bc e9 51 17 bd
       -0.14822848 -0.0055127363 -0.027061108 -0.03694335
0002b0 c3 fb 17 3e d3 a1 6c 3d b1 ac 9f 3b b3 a6 9d bd
       0.14842133 0.057771515 0.0048728813 -0.07697811
0002c0 33 26 18 bd 45 be c8 bc 15 a9 30 3d 29 f5 c6 3c
       -0.037145805 -0.02450479 0.04313 0.024286823
0002d0 8b a2 ac 3c ed be 3e 3a 81 16 18 3c 7a a2 12 3d
       0.0210736 0.0007276375 0.009282709 0.03579948
0002e0 b6 d2 fe bc 79 4c e1 bb 59 ab 2e bc 1f 19 4c 39
       -0.031106334 -0.0068755713 -0.01066097 0.00019464314
0002f0 10 8f 4e 3c 12 0d 35 3e a9 6d dc ba ac a6 4b 3b
       0.012607351 0.17680767 -0.0016817349 0.0031074686
000300 8e 1d 4c bd 83 79 6d bd b9 c9 05 bc b4 4e 30 3d
       -0.049832873 -0.05797721 -0.00816577 0.043043807
000310 6c fe bb bc e4 4d 3a 3d ca d2 00 bd 59 9f 50 3d
       -0.022948466 0.04548444 -0.031451024 0.050933216
000320 ec 09 13 3d 91 cb 62 bd 14 b3 19 bd c1 42 c3 bb
       0.035898134 -0.055369917 -0.037524298 -0.0059588854
000330 d7 a9 f6 3c 73 24 15 3d d1 53 61 3d 26 1b 65 3d
       0.030110283 0.036411714 0.055011574 0.055934094
000340 44 74 cf ba 5d ea 9b bc 9e 5e 2a bd b5 13 14 bd
       -0.0015827497 -0.019032652 -0.04159414 -0.036151607
000350 8f 1d 08 be 1b 87 19 bd 05 2f ce bc a8 fc 3a 3d
       -0.13292526 -0.037482362 -0.025168905 0.045651108
000360 c7 de 96 bc 80 4b 1e 3b 2d 24 c4 39 68 fa 39 3b
       -0.018416775 0.0024153888 0.00037410986 0.0028378014
000370 eb f5 6d 3d eb ca 7e bd d0 04 41 bd 59 f1 95 3b
       0.058095854 -0.062205236 -0.04712373 0.00457589
000380 b8 3c 75 bc d2 62 8e bd 5d dd 1d 3d c2 8c a4 3d
       -0.01496809 -0.06952442 0.038541187 0.0803466
000390 4d 63 63 bd e9 8c e9 bb cb 29 cc 3d e7 8d 5e 3b
       -0.055514622 -0.0071273935 0.09968909 0.0033959092
0003a0 5e 57 fd bc 2e 23 b8 bc 90 d5 70 3d 67 59 0d bd
       -0.030925449 -0.022477712 0.05879742 -0.03450909
0003b0 32 9a bb 3c 26 a0 e2 bd eb 56 54 be 9b cb 00 bd
       0.022900674 -0.11065702 -0.20736282 -0.031444173
0003c0 78 06 c1 bc 1b 82 57 bd 2d 2f 8c 3d 67 68 90 bb
       -0.023562655 -0.052614313 0.068449356 -0.004406977
0003d0 df 46 96 3d ea 92 c3 bc e8 c9 2e bd 97 46 83 3c
       0.07337736 -0.023873765 -0.04267302 0.01602487
0003e0 bb b0 d7 3c 5e c5 34 3c 14 3d 80 bd db 27 43 be
       0.026329389 0.011033384 -0.0626165 -0.19058172
0003f0 77 59 f8 bc 57 11 b2 bb cf e5 c1 3d 63 2b bc 3d
       -0.030316098 -0.005434196 0.09467661 0.09187963

regressor.bias f4 [7]
000000 d5 a4 e5 bd 03 63 88 bd d5 f9 e9 bd 1b cf da bd
       -0.1121308 -0.0665951 -0.11424605 -0.106840335
000010 0a 45 d5 bd bc f4 9e bc 55 28 c6 bd
       -0.10413559 -0.019403808 -0.096756615
